node {
  name: "global_step/Initializer/zeros"
  op: "Const"
  attr {
    key: "_class"
    value {
      list {
        s: "loc:@global_step"
      }
    }
  }
  attr {
    key: "_output_shapes"
    value {
      list {
        shape {
        }
      }
    }
  }
  attr {
    key: "dtype"
    value {
      type: DT_INT64
    }
  }
  attr {
    key: "value"
    value {
      tensor {
        dtype: DT_INT64
        tensor_shape {
        }
        int64_val: 0
      }
    }
  }
}
node {
  name: "global_step"
  op: "VarHandleOp"
  attr {
    key: "_class"
    value {
      list {
        s: "loc:@global_step"
      }
    }
  }
  attr {
    key: "_output_shapes"
    value {
      list {
        shape {
        }
      }
    }
  }
  attr {
    key: "allowed_devices"
    value {
      list {
      }
    }
  }
  attr {
    key: "container"
    value {
      s: ""
    }
  }
  attr {
    key: "dtype"
    value {
      type: DT_INT64
    }
  }
  attr {
    key: "shape"
    value {
      shape {
      }
    }
  }
  attr {
    key: "shared_name"
    value {
      s: "global_step"
    }
  }
}
node {
  name: "global_step/IsInitialized/VarIsInitializedOp"
  op: "VarIsInitializedOp"
  input: "global_step"
  attr {
    key: "_output_shapes"
    value {
      list {
        shape {
        }
      }
    }
  }
}
node {
  name: "global_step/Assign"
  op: "AssignVariableOp"
  input: "global_step"
  input: "global_step/Initializer/zeros"
  attr {
    key: "dtype"
    value {
      type: DT_INT64
    }
  }
}
node {
  name: "global_step/Read/ReadVariableOp"
  op: "ReadVariableOp"
  input: "global_step"
  attr {
    key: "_output_shapes"
    value {
      list {
        shape {
        }
      }
    }
  }
  attr {
    key: "dtype"
    value {
      type: DT_INT64
    }
  }
}
node {
  name: "global_step/VarIsInitializedOp"
  op: "VarIsInitializedOp"
  input: "global_step"
  attr {
    key: "_output_shapes"
    value {
      list {
        shape {
        }
      }
    }
  }
}
node {
  name: "global_step/cond"
  op: "If"
  input: "global_step/VarIsInitializedOp"
  input: "global_step"
  input: "global_step/Initializer/zeros"
  attr {
    key: "Tcond"
    value {
      type: DT_BOOL
    }
  }
  attr {
    key: "Tin"
    value {
      list {
        type: DT_RESOURCE
        type: DT_INT64
      }
    }
  }
  attr {
    key: "Tout"
    value {
      list {
        type: DT_INT64
      }
    }
  }
  attr {
    key: "_lower_using_switch_merge"
    value {
      b: true
    }
  }
  attr {
    key: "_output_shapes"
    value {
      list {
        shape {
        }
      }
    }
  }
  attr {
    key: "_read_only_resource_inputs"
    value {
      list {
        i: 1
      }
    }
  }
  attr {
    key: "else_branch"
    value {
      func {
        name: "global_step_cond_false_36627"
      }
    }
  }
  attr {
    key: "output_shapes"
    value {
      list {
        shape {
        }
      }
    }
  }
  attr {
    key: "then_branch"
    value {
      func {
        name: "global_step_cond_true_36626"
      }
    }
  }
}
node {
  name: "global_step/cond/Identity"
  op: "Identity"
  input: "global_step/cond"
  attr {
    key: "T"
    value {
      type: DT_INT64
    }
  }
  attr {
    key: "_output_shapes"
    value {
      list {
        shape {
        }
      }
    }
  }
}
node {
  name: "global_step/add/y"
  op: "Const"
  attr {
    key: "_output_shapes"
    value {
      list {
        shape {
        }
      }
    }
  }
  attr {
    key: "dtype"
    value {
      type: DT_INT64
    }
  }
  attr {
    key: "value"
    value {
      tensor {
        dtype: DT_INT64
        tensor_shape {
        }
        int64_val: 0
      }
    }
  }
}
node {
  name: "global_step/add"
  op: "AddV2"
  input: "global_step/cond/Identity"
  input: "global_step/add/y"
  attr {
    key: "T"
    value {
      type: DT_INT64
    }
  }
  attr {
    key: "_output_shapes"
    value {
      list {
        shape {
        }
      }
    }
  }
}
node {
  name: "normalize_element/component_0"
  op: "Const"
  device: "/device:CPU:0"
  attr {
    key: "_output_shapes"
    value {
      list {
        shape {
          dim {
            size: 627
          }
        }
      }
    }
  }
  attr {
    key: "dtype"
    value {
      type: DT_DOUBLE
    }
  }
  attr {
    key: "value"
    value {
      tensor {
        dtype: DT_DOUBLE
        tensor_shape {
          dim {
            size: 627
          }
        }
        tensor_content: "…"
      }
    }
  }
}
node {
  name: "normalize_element/component_1"
  op: "Const"
  device: "/device:CPU:0"
  attr {
    key: "_output_shapes"
    value {
      list {
        shape {
          dim {
            size: 627
          }
        }
      }
    }
  }
  attr {
    key: "dtype"
    value {
      type: DT_STRING
    }
  }
  attr {
    key: "value"
    value {
      tensor {
        dtype: DT_STRING
        tensor_shape {
          dim {
            size: 627
          }
        }
        string_val: "n"
        string_val: "n"
        string_val: "y"
        string_val: "n"
        string_val: "y"
        string_val: "n"
        string_val: "n"
        string_val: "n"
        string_val: "n"
        string_val: "y"
        string_val: "n"
        string_val: "y"
        string_val: "n"
        string_val: "y"
        string_val: "n"
        string_val: "y"
        string_val: "y"
        string_val: "y"
        string_val: "n"
        string_val: "y"
        string_val: "n"
        string_val: "y"
        string_val: "y"
        string_val: "y"
        string_val: "n"
        string_val: "y"
        string_val: "y"
        string_val: "n"
        string_val: "n"
        string_val: "y"
        string_val: "n"
        string_val: "n"
        string_val: "n"
        string_val: "y"
        string_val: "n"
        string_val: "y"
        string_val: "n"
        string_val: "n"
        string_val: "n"
        string_val: "n"
        string_val: "n"
        string_val: "n"
        string_val: "n"
        string_val: "y"
        string_val: "y"
        string_val: "y"
        string_val: "n"
        string_val: "y"
        string_val: "y"
        string_val: "n"
        string_val: "n"
        string_val: "n"
        string_val: "y"
        string_val: "n"
        string_val: "n"
        string_val: "y"
        string_val: "y"
        string_val: "y"
        string_val: "y"
        string_val: "y"
        string_val: "y"
        string_val: "n"
        string_val: "y"
        string_val: "y"
        string_val: "y"
        string_val: "y"
        string_val: "y"
        string_val: "n"
        string_val: "y"
        string_val: "n"
        string_val: "y"
        string_val: "n"
        string_val: "y"
        string_val: "y"
        string_val: "y"
        string_val: "n"
        string_val: "n"
        string_val: "n"
        string_val: "y"
        string_val: "y"
        string_val: "n"
        string_val: "y"
        string_val: "n"
        string_val: "y"
        string_val: "y"
        string_val: "n"
        string_val: "y"
        string_val: "n"
        string_val: "y"
        string_val: "y"
        string_val: "y"
        string_val: "y"
        string_val: "n"
        string_val: "n"
        string_val: "y"
        string_val: "n"
        string_val: "y"
        string_val: "y"
        string_val: "y"
        string_val: "y"
        string_val: "y"
        string_val: "n"
        string_val: "y"
        string_val: "n"
        string_val: "n"
        string_val: "y"
        string_val: "y"
        string_val: "n"
        string_val: "y"
        string_val: "y"
        string_val: "y"
        string_val: "n"
        string_val: "y"
        string_val: "y"
        string_val: "n"
        string_val: "y"
        string_val: "n"
        string_val: "y"
        string_val: "y"
        string_val: "n"
        string_val: "n"
        string_val: "y"
        string_val: "y"
        string_val: "n"
        string_val: "n"
        string_val: "y"
        string_val: "n"
        string_val: "n"
        string_val: "n"
        string_val: "y"
        string_val: "y"
        string_val: "y"
        string_val: "n"
        string_val: "y"
        string_val: "n"
        string_val: "n"
        string_val: "n"
        string_val: "y"
        string_val: "y"
        string_val: "y"
        string_val: "n"
        string_val: "n"
        string_val: "y"
        string_val: "y"
        string_val: "y"
        string_val: "y"
        string_val: "y"
        string_val: "y"
        string_val: "n"
        string_val: "y"
        string_val: "n"
        string_val: "n"
        string_val: "y"
        string_val: "y"
        string_val: "y"
        string_val: "y"
        string_val: "y"
        string_val: "n"
        string_val: "n"
        string_val: "y"
        string_val: "n"
        string_val: "y"
        string_val: "y"
        string_val: "y"
        string_val: "y"
        string_val: "y"
        string_val: "y"
        string_val: "y"
        string_val: "n"
        string_val: "n"
        string_val: "y"
        string_val: "y"
        string_val: "y"
        string_val: "n"
        string_val: "y"
        string_val: "y"
        string_val: "n"
        string_val: "n"
        string_val: "y"
        string_val: "y"
        string_val: "n"
        string_val: "n"
        string_val: "y"
        string_val: "n"
        string_val: "n"
        string_val: "n"
        string_val: "y"
        string_val: "y"
        string_val: "n"
        string_val: "y"
        string_val: "n"
        string_val: "y"
        string_val: "y"
        string_val: "y"
        string_val: "n"
        string_val: "n"
        string_val: "n"
        string_val: "y"
        string_val: "y"
        string_val: "y"
        string_val: "n"
        string_val: "n"
        string_val: "y"
        string_val: "n"
        string_val: "y"
        string_val: "y"
        string_val: "n"
        string_val: "n"
        string_val: "y"
        string_val: "y"
        string_val: "y"
        string_val: "y"
        string_val: "y"
        string_val: "y"
        string_val: "y"
        string_val: "n"
        string_val: "y"
        string_val: "y"
        string_val: "y"
        string_val: "y"
        string_val: "y"
        string_val: "n"
        string_val: "n"
        string_val: "y"
        string_val: "y"
        string_val: "n"
        string_val: "n"
        string_val: "y"
        string_val: "n"
        string_val: "n"
        string_val: "n"
        string_val: "n"
        string_val: "y"
        string_val: "y"
        string_val: "n"
        string_val: "n"
        string_val: "y"
        string_val: "y"
        string_val: "n"
        string_val: "n"
        string_val: "n"
        string_val: "n"
        string_val: "y"
        string_val: "n"
        string_val: "y"
        string_val: "y"
        string_val: "y"
        string_val: "y"
        string_val: "y"
        string_val: "y"
        string_val: "y"
        string_val: "n"
        string_val: "n"
        string_val: "n"
        string_val: "y"
        string_val: "y"
        string_val: "n"
        string_val: "y"
        string_val: "y"
        string_val: "y"
        string_val: "n"
        string_val: "n"
        string_val: "n"
        string_val: "y"
        string_val: "n"
        string_val: "n"
        string_val: "y"
        string_val: "y"
        string_val: "y"
        string_val: "n"
        string_val: "y"
        string_val: "n"
        string_val: "n"
        string_val: "y"
        string_val: "y"
        string_val: "y"
        string_val: "y"
        string_val: "y"
        string_val: "n"
        string_val: "y"
        string_val: "y"
        string_val: "n"
        string_val: "y"
        string_val: "n"
        string_val: "n"
        string_val: "y"
        string_val: "y"
        string_val: "y"
        string_val: "y"
        string_val: "y"
        string_val: "y"
        string_val: "n"
        string_val: "n"
        string_val: "n"
        string_val: "y"
        string_val: "n"
        string_val: "y"
        string_val: "y"
        string_val: "y"
        string_val: "y"
        string_val: "y"
        string_val: "n"
        string_val: "n"
        string_val: "y"
        string_val: "y"
        string_val: "y"
        string_val: "n"
        string_val: "y"
        string_val: "y"
        string_val: "y"
        string_val: "y"
        string_val: "n"
        string_val: "n"
        string_val: "y"
        string_val: "n"
        string_val: "n"
        string_val: "n"
        string_val: "n"
        string_val: "y"
        string_val: "n"
        string_val: "y"
        string_val: "y"
        string_val: "y"
        string_val: "y"
        string_val: "n"
        string_val: "y"
        string_val: "n"
        string_val: "y"
        string_val: "n"
        string_val: "y"
        string_val: "y"
        string_val: "n"
        string_val: "y"
        string_val: "y"
        string_val: "y"
        string_val: "y"
        string_val: "y"
        string_val: "y"
        string_val: "y"
        string_val: "n"
        string_val: "y"
        string_val: "n"
        string_val: "y"
        string_val: "y"
        string_val: "n"
        string_val: "n"
        string_val: "n"
        string_val: "n"
        string_val: "y"
        string_val: "y"
        string_val: "n"
        string_val: "n"
        string_val: "n"
        string_val: "y"
        string_val: "n"
        string_val: "n"
        string_val: "y"
        string_val: "y"
        string_val: "n"
        string_val: "y"
        string_val: "y"
        string_val: "y"
        string_val: "n"
        string_val: "n"
        string_val: "y"
        string_val: "y"
        string_val: "n"
        string_val: "y"
        string_val: "y"
        string_val: "y"
        string_val: "n"
        string_val: "y"
        string_val: "y"
        string_val: "y"
        string_val: "n"
        string_val: "y"
        string_val: "y"
        string_val: "y"
        string_val: "y"
        string_val: "n"
        string_val: "n"
        string_val: "n"
        string_val: "n"
        string_val: "y"
        string_val: "n"
        string_val: "y"
        string_val: "y"
        string_val: "n"
        string_val: "n"
        string_val: "n"
        string_val: "n"
        string_val: "n"
        string_val: "n"
        string_val: "y"
        string_val: "n"
        string_val: "n"
        string_val: "y"
        string_val: "y"
        string_val: "y"
        string_val: "n"
        string_val: "y"
        string_val: "n"
        string_val: "n"
        string_val: "y"
        string_val: "y"
        string_val: "y"
        string_val: "n"
        string_val: "y"
        string_val: "n"
        string_val: "y"
        string_val: "y"
        string_val: "n"
        string_val: "y"
        string_val: "y"
        string_val: "y"
        string_val: "n"
        string_val: "y"
        string_val: "y"
        string_val: "n"
        string_val: "y"
        string_val: "y"
        string_val: "n"
        string_val: "y"
        string_val: "n"
        string_val: "n"
        string_val: "n"
        string_val: "y"
        string_val: "y"
        string_val: "y"
        string_val: "n"
        string_val: "y"
        string_val: "n"
        string_val: "y"
        string_val: "y"
        string_val: "n"
        string_val: "y"
        string_val: "n"
        string_val: "y"
        string_val: "n"
        string_val: "y"
        string_val: "n"
        string_val: "n"
        string_val: "y"
        string_val: "n"
        string_val: "y"
        string_val: "y"
        string_val: "y"
        string_val: "y"
        string_val: "y"
        string_val: "y"
        string_val: "y"
        string_val: "y"
        string_val: "n"
        string_val: "y"
        string_val: "y"
        string_val: "n"
        string_val: "n"
        string_val: "y"
        string_val: "y"
        string_val: "n"
        string_val: "n"
        string_val: "y"
        string_val: "y"
        string_val: "y"
        string_val: "n"
        string_val: "y"
        string_val: "n"
        string_val: "y"
        string_val: "n"
        string_val: "n"
        string_val: "y"
        string_val: "y"
        string_val: "n"
        string_val: "y"
        string_val: "y"
        string_val: "y"
        string_val: "n"
        string_val: "n"
        string_val: "y"
        string_val: "y"
        string_val: "y"
        string_val: "y"
        string_val: "n"
        string_val: "y"
        string_val: "y"
        string_val: "n"
        string_val: "n"
        string_val: "y"
        string_val: "y"
        string_val: "n"
        string_val: "n"
        string_val: "n"
        string_val: "y"
        string_val: "y"
        string_val: "y"
        string_val: "n"
        string_val: "y"
        string_val: "y"
        string_val: "y"
        string_val: "y"
        string_val: "n"
        string_val: "y"
        string_val: "y"
        string_val: "n"
        string_val: "y"
        string_val: "y"
        string_val: "y"
        string_val: "y"
        string_val: "y"
        string_val: "y"
        string_val: "n"
        string_val: "y"
        string_val: "n"
        string_val: "n"
        string_val: "n"
        string_val: "n"
        string_val: "y"
        string_val: "y"
        string_val: "y"
        string_val: "y"
        string_val: "y"
        string_val: "y"
        string_val: "y"
        string_val: "y"
        string_val: "n"
        string_val: "n"
        string_val: "n"
        string_val: "n"
        string_val: "n"
        string_val: "n"
        string_val: "y"
        string_val: "y"
        string_val: "n"
        string_val: "y"
        string_val: "y"
        string_val: "y"
        string_val: "y"
        string_val: "y"
        string_val: "n"
        string_val: "y"
        string_val: "n"
        string_val: "y"
        string_val: "y"
        string_val: "y"
        string_val: "y"
        string_val: "y"
        string_val: "y"
        string_val: "n"
        string_val: "y"
        string_val: "n"
        string_val: "y"
        string_val: "n"
        string_val: "y"
        string_val: "y"
        string_val: "y"
        string_val: "n"
        string_val: "y"
        string_val: "y"
        string_val: "y"
        string_val: "y"
        string_val: "y"
        string_val: "y"
        string_val: "n"
        string_val: "y"
        string_val: "n"
        string_val: "n"
        string_val: "y"
        string_val: "y"
        string_val: "y"
        string_val: "n"
        string_val: "y"
        string_val: "y"
        string_val: "y"
        string_val: "y"
        string_val: "y"
        string_val: "y"
        string_val: "n"
        string_val: "n"
        string_val: "n"
        string_val: "y"
        string_val: "n"
        string_val: "y"
        string_val: "y"
        string_val: "y"
        string_val: "n"
        string_val: "y"
        string_val: "y"
        string_val: "y"
        string_val: "n"
        string_val: "y"
        string_val: "y"
        string_val: "y"
        string_val: "y"
        string_val: "y"
        string_val: "y"
        string_val: "y"
        string_val: "n"
        string_val: "y"
        string_val: "n"
        string_val: "n"
        string_val: "n"
        string_val: "n"
        string_val: "n"
        string_val: "n"
        string_val: "y"
        string_val: "n"
        string_val: "n"
        string_val: "y"
        string_val: "y"
        string_val: "n"
        string_val: "y"
        string_val: "n"
        string_val: "y"
        string_val: "n"
        string_val: "y"
        string_val: "y"
        string_val: "n"
        string_val: "y"
        string_val: "y"
        string_val: "y"
        string_val: "y"
        string_val: "y"
        string_val: "y"
        string_val: "y"
        string_val: "y"
        string_val: "n"
        string_val: "y"
      }
    }
  }
}
node {
  name: "normalize_element/component_2"
  op: "Const"
  device: "/device:CPU:0"
  attr {
    key: "_output_shapes"
    value {
      list {
        shape {
          dim {
            size: 627
          }
        }
      }
    }
  }
  attr {
    key: "dtype"
    value {
      type: DT_STRING
    }
  }
  attr {
    key: "value"
    value {
      tensor {
        dtype: DT_STRING
        tensor_shape {
          dim {
            size: 627
          }
        }
        string_val: "Third"
        string_val: "First"
        string_val: "Third"
        string_val: "First"
        string_val: "Third"
        string_val: "Third"
        string_val: "Third"
        string_val: "Second"
        string_val: "Third"
        string_val: "Third"
        string_val: "Third"
        string_val: "Third"
        string_val: "Third"
        string_val: "Second"
        string_val: "Third"
        string_val: "Third"
        string_val: "Second"
        string_val: "First"
        string_val: "Third"
        string_val: "Third"
        string_val: "First"
        string_val: "Third"
        string_val: "Third"
        string_val: "First"
        string_val: "First"
        string_val: "Third"
        string_val: "Second"
        string_val: "First"
        string_val: "First"
        string_val: "Third"
        string_val: "Third"
        string_val: "Third"
        string_val: "Second"
        string_val: "Third"
        string_val: "Second"
        string_val: "Third"
        string_val: "Third"
        string_val: "Third"
        string_val: "Third"
        string_val: "Third"
        string_val: "First"
        string_val: "Second"
        string_val: "First"
        string_val: "First"
        string_val: "Second"
        string_val: "Third"
        string_val: "Third"
        string_val: "Third"
        string_val: "First"
        string_val: "First"
        string_val: "Third"
        string_val: "Third"
        string_val: "Third"
        string_val: "Third"
        string_val: "Third"
        string_val: "Second"
        string_val: "Second"
        string_val: "Third"
        string_val: "Third"
        string_val: "Third"
        string_val: "Third"
        string_val: "Second"
        string_val: "Third"
        string_val: "Third"
        string_val: "Third"
        string_val: "Third"
        string_val: "First"
        string_val: "Third"
        string_val: "Third"
        string_val: "First"
        string_val: "Third"
        string_val: "First"
        string_val: "Third"
        string_val: "Third"
        string_val: "First"
        string_val: "First"
        string_val: "Second"
        string_val: "Second"
        string_val: "Third"
        string_val: "Third"
        string_val: "First"
        string_val: "Third"
        string_val: "Third"
        string_val: "Third"
        string_val: "Third"
        string_val: "Third"
        string_val: "First"
        string_val: "Third"
        string_val: "Third"
        string_val: "Third"
        string_val: "Third"
        string_val: "Third"
        string_val: "Second"
        string_val: "First"
        string_val: "Third"
        string_val: "Second"
        string_val: "Second"
        string_val: "Third"
        string_val: "Third"
        string_val: "Third"
        string_val: "Third"
        string_val: "Third"
        string_val: "Second"
        string_val: "First"
        string_val: "First"
        string_val: "Third"
        string_val: "First"
        string_val: "Third"
        string_val: "Third"
        string_val: "Third"
        string_val: "Second"
        string_val: "Third"
        string_val: "Second"
        string_val: "Third"
        string_val: "Third"
        string_val: "Third"
        string_val: "First"
        string_val: "Third"
        string_val: "Third"
        string_val: "Third"
        string_val: "Third"
        string_val: "Third"
        string_val: "Third"
        string_val: "Third"
        string_val: "First"
        string_val: "Third"
        string_val: "Third"
        string_val: "Third"
        string_val: "Third"
        string_val: "First"
        string_val: "Second"
        string_val: "Third"
        string_val: "Third"
        string_val: "Second"
        string_val: "Third"
        string_val: "Third"
        string_val: "Third"
        string_val: "First"
        string_val: "Third"
        string_val: "Second"
        string_val: "Third"
        string_val: "Second"
        string_val: "First"
        string_val: "First"
        string_val: "Third"
        string_val: "Third"
        string_val: "Second"
        string_val: "Third"
        string_val: "Third"
        string_val: "Third"
        string_val: "Third"
        string_val: "Third"
        string_val: "Third"
        string_val: "Third"
        string_val: "First"
        string_val: "Second"
        string_val: "Third"
        string_val: "Third"
        string_val: "First"
        string_val: "Third"
        string_val: "Second"
        string_val: "Second"
        string_val: "Third"
        string_val: "Third"
        string_val: "Third"
        string_val: "Second"
        string_val: "Third"
        string_val: "Second"
        string_val: "Third"
        string_val: "First"
        string_val: "Third"
        string_val: "Second"
        string_val: "Third"
        string_val: "Second"
        string_val: "Second"
        string_val: "Second"
        string_val: "Third"
        string_val: "Third"
        string_val: "Third"
        string_val: "Third"
        string_val: "First"
        string_val: "Second"
        string_val: "Third"
        string_val: "Third"
        string_val: "Third"
        string_val: "Third"
        string_val: "First"
        string_val: "First"
        string_val: "Second"
        string_val: "Third"
        string_val: "Third"
        string_val: "First"
        string_val: "Third"
        string_val: "Second"
        string_val: "Third"
        string_val: "Third"
        string_val: "First"
        string_val: "First"
        string_val: "First"
        string_val: "Third"
        string_val: "Second"
        string_val: "First"
        string_val: "Third"
        string_val: "First"
        string_val: "Third"
        string_val: "Second"
        string_val: "Third"
        string_val: "Third"
        string_val: "Third"
        string_val: "Third"
        string_val: "First"
        string_val: "First"
        string_val: "Second"
        string_val: "Third"
        string_val: "First"
        string_val: "First"
        string_val: "Third"
        string_val: "Third"
        string_val: "Second"
        string_val: "Third"
        string_val: "First"
        string_val: "First"
        string_val: "Second"
        string_val: "First"
        string_val: "First"
        string_val: "First"
        string_val: "Second"
        string_val: "Third"
        string_val: "Second"
        string_val: "Second"
        string_val: "First"
        string_val: "First"
        string_val: "Third"
        string_val: "Third"
        string_val: "Second"
        string_val: "Third"
        string_val: "First"
        string_val: "Third"
        string_val: "Third"
        string_val: "Third"
        string_val: "First"
        string_val: "First"
        string_val: "Third"
        string_val: "First"
        string_val: "Third"
        string_val: "First"
        string_val: "Second"
        string_val: "Second"
        string_val: "Second"
        string_val: "Second"
        string_val: "Second"
        string_val: "Third"
        string_val: "Third"
        string_val: "Third"
        string_val: "Third"
        string_val: "Third"
        string_val: "First"
        string_val: "Second"
        string_val: "Third"
        string_val: "Third"
        string_val: "Third"
        string_val: "Second"
        string_val: "Third"
        string_val: "Third"
        string_val: "Third"
        string_val: "First"
        string_val: "Third"
        string_val: "Third"
        string_val: "First"
        string_val: "Third"
        string_val: "Third"
        string_val: "First"
        string_val: "First"
        string_val: "Third"
        string_val: "First"
        string_val: "Third"
        string_val: "Third"
        string_val: "Second"
        string_val: "Third"
        string_val: "Third"
        string_val: "Second"
        string_val: "First"
        string_val: "Third"
        string_val: "First"
        string_val: "Third"
        string_val: "Third"
        string_val: "Third"
        string_val: "Second"
        string_val: "Second"
        string_val: "Third"
        string_val: "Third"
        string_val: "Third"
        string_val: "Second"
        string_val: "Second"
        string_val: "Third"
        string_val: "Third"
        string_val: "Third"
        string_val: "Third"
        string_val: "Second"
        string_val: "Third"
        string_val: "Third"
        string_val: "Second"
        string_val: "Second"
        string_val: "Second"
        string_val: "Third"
        string_val: "Third"
        string_val: "Third"
        string_val: "Second"
        string_val: "Third"
        string_val: "Third"
        string_val: "First"
        string_val: "Third"
        string_val: "Second"
        string_val: "Third"
        string_val: "First"
        string_val: "First"
        string_val: "Second"
        string_val: "First"
        string_val: "Second"
        string_val: "Second"
        string_val: "Third"
        string_val: "Second"
        string_val: "Third"
        string_val: "First"
        string_val: "Third"
        string_val: "First"
        string_val: "Second"
        string_val: "First"
        string_val: "First"
        string_val: "Third"
        string_val: "First"
        string_val: "First"
        string_val: "First"
        string_val: "Third"
        string_val: "First"
        string_val: "Third"
        string_val: "Third"
        string_val: "First"
        string_val: "Third"
        string_val: "Third"
        string_val: "Third"
        string_val: "Second"
        string_val: "Second"
        string_val: "First"
        string_val: "Second"
        string_val: "Third"
        string_val: "Third"
        string_val: "Third"
        string_val: "Second"
        string_val: "Third"
        string_val: "First"
        string_val: "Third"
        string_val: "First"
        string_val: "First"
        string_val: "Third"
        string_val: "Third"
        string_val: "First"
        string_val: "Third"
        string_val: "First"
        string_val: "Third"
        string_val: "Third"
        string_val: "Third"
        string_val: "First"
        string_val: "Second"
        string_val: "First"
        string_val: "Third"
        string_val: "First"
        string_val: "Third"
        string_val: "First"
        string_val: "Second"
        string_val: "Second"
        string_val: "Third"
        string_val: "First"
        string_val: "Third"
        string_val: "First"
        string_val: "Third"
        string_val: "Third"
        string_val: "Second"
        string_val: "First"
        string_val: "Second"
        string_val: "Second"
        string_val: "Third"
        string_val: "Third"
        string_val: "Third"
        string_val: "Second"
        string_val: "First"
        string_val: "First"
        string_val: "First"
        string_val: "First"
        string_val: "Third"
        string_val: "Third"
        string_val: "First"
        string_val: "Second"
        string_val: "Second"
        string_val: "Third"
        string_val: "First"
        string_val: "Second"
        string_val: "Third"
        string_val: "Third"
        string_val: "First"
        string_val: "First"
        string_val: "First"
        string_val: "Third"
        string_val: "Third"
        string_val: "Third"
        string_val: "Third"
        string_val: "Third"
        string_val: "Third"
        string_val: "Third"
        string_val: "Third"
        string_val: "Second"
        string_val: "First"
        string_val: "First"
        string_val: "Third"
        string_val: "Second"
        string_val: "Second"
        string_val: "First"
        string_val: "Second"
        string_val: "First"
        string_val: "Third"
        string_val: "Third"
        string_val: "First"
        string_val: "Third"
        string_val: "Third"
        string_val: "Second"
        string_val: "Third"
        string_val: "Second"
        string_val: "Third"
        string_val: "Third"
        string_val: "First"
        string_val: "First"
        string_val: "Third"
        string_val: "Third"
        string_val: "First"
        string_val: "Second"
        string_val: "First"
        string_val: "Third"
        string_val: "Third"
        string_val: "Third"
        string_val: "Third"
        string_val: "Second"
        string_val: "Third"
        string_val: "Second"
        string_val: "Third"
        string_val: "First"
        string_val: "Second"
        string_val: "First"
        string_val: "Third"
        string_val: "Third"
        string_val: "First"
        string_val: "Third"
        string_val: "First"
        string_val: "Third"
        string_val: "Second"
        string_val: "Third"
        string_val: "Third"
        string_val: "Third"
        string_val: "Third"
        string_val: "Third"
        string_val: "Third"
        string_val: "First"
        string_val: "Third"
        string_val: "Third"
        string_val: "Third"
        string_val: "Second"
        string_val: "Third"
        string_val: "Second"
        string_val: "Third"
        string_val: "Third"
        string_val: "First"
        string_val: "First"
        string_val: "Third"
        string_val: "Third"
        string_val: "Second"
        string_val: "Third"
        string_val: "Third"
        string_val: "Second"
        string_val: "First"
        string_val: "Second"
        string_val: "Second"
        string_val: "Third"
        string_val: "Third"
        string_val: "First"
        string_val: "First"
        string_val: "Third"
        string_val: "Third"
        string_val: "Second"
        string_val: "Third"
        string_val: "Third"
        string_val: "First"
        string_val: "First"
        string_val: "Third"
        string_val: "Third"
        string_val: "First"
        string_val: "Third"
        string_val: "First"
        string_val: "First"
        string_val: "Third"
        string_val: "Second"
        string_val: "First"
        string_val: "Third"
        string_val: "First"
        string_val: "First"
        string_val: "First"
        string_val: "Third"
        string_val: "Third"
        string_val: "First"
        string_val: "Second"
        string_val: "Third"
        string_val: "Third"
        string_val: "Second"
        string_val: "Second"
        string_val: "First"
        string_val: "Second"
        string_val: "Second"
        string_val: "Third"
        string_val: "First"
        string_val: "Third"
        string_val: "Second"
        string_val: "Second"
        string_val: "Second"
        string_val: "First"
        string_val: "Third"
        string_val: "Third"
        string_val: "First"
        string_val: "First"
        string_val: "Third"
        string_val: "First"
        string_val: "Second"
        string_val: "Third"
        string_val: "Third"
        string_val: "Third"
        string_val: "Second"
        string_val: "Third"
        string_val: "Third"
        string_val: "Third"
        string_val: "Third"
        string_val: "Third"
        string_val: "First"
        string_val: "First"
        string_val: "Third"
        string_val: "Third"
        string_val: "Third"
        string_val: "Second"
        string_val: "Third"
        string_val: "Third"
        string_val: "Third"
        string_val: "First"
        string_val: "First"
        string_val: "Third"
        string_val: "Third"
        string_val: "Third"
        string_val: "First"
        string_val: "Third"
        string_val: "Second"
        string_val: "Third"
        string_val: "First"
        string_val: "Third"
        string_val: "Second"
        string_val: "First"
        string_val: "Third"
        string_val: "Third"
        string_val: "Third"
        string_val: "Second"
        string_val: "Second"
        string_val: "First"
        string_val: "Third"
        string_val: "First"
        string_val: "Second"
        string_val: "First"
        string_val: "Third"
        string_val: "Third"
        string_val: "Second"
        string_val: "Third"
        string_val: "First"
        string_val: "Third"
        string_val: "Second"
        string_val: "Third"
        string_val: "First"
        string_val: "Third"
        string_val: "Third"
        string_val: "Third"
        string_val: "Third"
        string_val: "Third"
        string_val: "Third"
        string_val: "Third"
        string_val: "Third"
        string_val: "Third"
        string_val: "First"
        string_val: "Third"
        string_val: "Third"
        string_val: "First"
        string_val: "Second"
        string_val: "First"
        string_val: "Third"
        string_val: "Third"
        string_val: "Third"
        string_val: "Third"
        string_val: "Second"
        string_val: "First"
        string_val: "Third"
        string_val: "First"
        string_val: "Third"
        string_val: "First"
        string_val: "First"
        string_val: "Third"
        string_val: "Third"
        string_val: "Second"
        string_val: "Second"
        string_val: "Second"
        string_val: "First"
        string_val: "Third"
        string_val: "Third"
        string_val: "First"
        string_val: "First"
        string_val: "Third"
        string_val: "Second"
        string_val: "Third"
        string_val: "Third"
        string_val: "Third"
        string_val: "Third"
        string_val: "Third"
        string_val: "Second"
        string_val: "Third"
        string_val: "First"
        string_val: "Third"
        string_val: "Third"
      }
    }
  }
}
node {
  name: "normalize_element/component_3"
  op: "Const"
  device: "/device:CPU:0"
  attr {
    key: "_output_shapes"
    value {
      list {
        shape {
          dim {
            size: 627
          }
        }
      }
    }
  }
  attr {
    key: "dtype"
    value {
      type: DT_STRING
    }
  }
  attr {
    key: "value"
    value {
      tensor {
        dtype: DT_STRING
        tensor_shape {
          dim {
            size: 627
          }
        }
        string_val: "unknown"
        string_val: "C"
        string_val: "unknown"
        string_val: "C"
        string_val: "unknown"
        string_val: "unknown"
        string_val: "unknown"
        string_val: "unknown"
        string_val: "G"
        string_val: "unknown"
        string_val: "unknown"
        string_val: "unknown"
        string_val: "unknown"
        string_val: "unknown"
        string_val: "unknown"
        string_val: "unknown"
        string_val: "unknown"
        string_val: "A"
        string_val: "unknown"
        string_val: "unknown"
        string_val: "C"
        string_val: "unknown"
        string_val: "unknown"
        string_val: "unknown"
        string_val: "B"
        string_val: "unknown"
        string_val: "unknown"
        string_val: "unknown"
        string_val: "unknown"
        string_val: "unknown"
        string_val: "unknown"
        string_val: "unknown"
        string_val: "unknown"
        string_val: "unknown"
        string_val: "unknown"
        string_val: "unknown"
        string_val: "unknown"
        string_val: "unknown"
        string_val: "unknown"
        string_val: "unknown"
        string_val: "D"
        string_val: "unknown"
        string_val: "B"
        string_val: "C"
        string_val: "unknown"
        string_val: "unknown"
        string_val: "unknown"
        string_val: "unknown"
        string_val: "B"
        string_val: "C"
        string_val: "unknown"
        string_val: "unknown"
        string_val: "unknown"
        string_val: "unknown"
        string_val: "unknown"
        string_val: "unknown"
        string_val: "unknown"
        string_val: "unknown"
        string_val: "F"
        string_val: "unknown"
        string_val: "unknown"
        string_val: "unknown"
        string_val: "unknown"
        string_val: "unknown"
        string_val: "unknown"
        string_val: "unknown"
        string_val: "unknown"
        string_val: "unknown"
        string_val: "unknown"
        string_val: "C"
        string_val: "unknown"
        string_val: "E"
        string_val: "unknown"
        string_val: "unknown"
        string_val: "A"
        string_val: "D"
        string_val: "unknown"
        string_val: "unknown"
        string_val: "unknown"
        string_val: "unknown"
        string_val: "D"
        string_val: "unknown"
        string_val: "unknown"
        string_val: "unknown"
        string_val: "unknown"
        string_val: "unknown"
        string_val: "C"
        string_val: "unknown"
        string_val: "unknown"
        string_val: "unknown"
        string_val: "unknown"
        string_val: "unknown"
        string_val: "unknown"
        string_val: "B"
        string_val: "unknown"
        string_val: "unknown"
        string_val: "E"
        string_val: "unknown"
        string_val: "unknown"
        string_val: "unknown"
        string_val: "unknown"
        string_val: "unknown"
        string_val: "unknown"
        string_val: "D"
        string_val: "C"
        string_val: "unknown"
        string_val: "B"
        string_val: "unknown"
        string_val: "unknown"
        string_val: "unknown"
        string_val: "unknown"
        string_val: "unknown"
        string_val: "unknown"
        string_val: "unknown"
        string_val: "unknown"
        string_val: "unknown"
        string_val: "unknown"
        string_val: "unknown"
        string_val: "unknown"
        string_val: "unknown"
        string_val: "unknown"
        string_val: "unknown"
        string_val: "unknown"
        string_val: "unknown"
        string_val: "E"
        string_val: "unknown"
        string_val: "unknown"
        string_val: "unknown"
        string_val: "unknown"
        string_val: "C"
        string_val: "unknown"
        string_val: "unknown"
        string_val: "unknown"
        string_val: "unknown"
        string_val: "unknown"
        string_val: "unknown"
        string_val: "unknown"
        string_val: "unknown"
        string_val: "unknown"
        string_val: "unknown"
        string_val: "unknown"
        string_val: "F"
        string_val: "B"
        string_val: "B"
        string_val: "unknown"
        string_val: "unknown"
        string_val: "unknown"
        string_val: "unknown"
        string_val: "unknown"
        string_val: "unknown"
        string_val: "G"
        string_val: "unknown"
        string_val: "unknown"
        string_val: "unknown"
        string_val: "A"
        string_val: "unknown"
        string_val: "unknown"
        string_val: "unknown"
        string_val: "D"
        string_val: "unknown"
        string_val: "unknown"
        string_val: "unknown"
        string_val: "unknown"
        string_val: "unknown"
        string_val: "unknown"
        string_val: "unknown"
        string_val: "unknown"
        string_val: "unknown"
        string_val: "unknown"
        string_val: "C"
        string_val: "unknown"
        string_val: "unknown"
        string_val: "unknown"
        string_val: "unknown"
        string_val: "unknown"
        string_val: "unknown"
        string_val: "unknown"
        string_val: "unknown"
        string_val: "unknown"
        string_val: "unknown"
        string_val: "C"
        string_val: "unknown"
        string_val: "unknown"
        string_val: "G"
        string_val: "unknown"
        string_val: "unknown"
        string_val: "unknown"
        string_val: "unknown"
        string_val: "unknown"
        string_val: "unknown"
        string_val: "unknown"
        string_val: "B"
        string_val: "unknown"
        string_val: "unknown"
        string_val: "unknown"
        string_val: "unknown"
        string_val: "C"
        string_val: "C"
        string_val: "unknown"
        string_val: "unknown"
        string_val: "unknown"
        string_val: "C"
        string_val: "unknown"
        string_val: "D"
        string_val: "unknown"
        string_val: "unknown"
        string_val: "unknown"
        string_val: "unknown"
        string_val: "unknown"
        string_val: "unknown"
        string_val: "A"
        string_val: "unknown"
        string_val: "D"
        string_val: "unknown"
        string_val: "C"
        string_val: "B"
        string_val: "unknown"
        string_val: "unknown"
        string_val: "E"
        string_val: "unknown"
        string_val: "unknown"
        string_val: "C"
        string_val: "unknown"
        string_val: "E"
        string_val: "C"
        string_val: "B"
        string_val: "unknown"
        string_val: "unknown"
        string_val: "unknown"
        string_val: "unknown"
        string_val: "C"
        string_val: "E"
        string_val: "unknown"
        string_val: "unknown"
        string_val: "unknown"
        string_val: "unknown"
        string_val: "C"
        string_val: "unknown"
        string_val: "unknown"
        string_val: "unknown"
        string_val: "C"
        string_val: "unknown"
        string_val: "unknown"
        string_val: "C"
        string_val: "unknown"
        string_val: "unknown"
        string_val: "unknown"
        string_val: "unknown"
        string_val: "unknown"
        string_val: "F"
        string_val: "unknown"
        string_val: "unknown"
        string_val: "unknown"
        string_val: "unknown"
        string_val: "unknown"
        string_val: "unknown"
        string_val: "E"
        string_val: "unknown"
        string_val: "unknown"
        string_val: "unknown"
        string_val: "unknown"
        string_val: "unknown"
        string_val: "unknown"
        string_val: "unknown"
        string_val: "unknown"
        string_val: "D"
        string_val: "unknown"
        string_val: "unknown"
        string_val: "B"
        string_val: "unknown"
        string_val: "unknown"
        string_val: "unknown"
        string_val: "C"
        string_val: "unknown"
        string_val: "unknown"
        string_val: "unknown"
        string_val: "unknown"
        string_val: "unknown"
        string_val: "unknown"
        string_val: "unknown"
        string_val: "unknown"
        string_val: "B"
        string_val: "unknown"
        string_val: "D"
        string_val: "G"
        string_val: "unknown"
        string_val: "unknown"
        string_val: "unknown"
        string_val: "unknown"
        string_val: "unknown"
        string_val: "unknown"
        string_val: "unknown"
        string_val: "unknown"
        string_val: "unknown"
        string_val: "unknown"
        string_val: "unknown"
        string_val: "unknown"
        string_val: "unknown"
        string_val: "unknown"
        string_val: "unknown"
        string_val: "unknown"
        string_val: "unknown"
        string_val: "unknown"
        string_val: "unknown"
        string_val: "unknown"
        string_val: "unknown"
        string_val: "unknown"
        string_val: "unknown"
        string_val: "unknown"
        string_val: "E"
        string_val: "C"
        string_val: "unknown"
        string_val: "unknown"
        string_val: "unknown"
        string_val: "E"
        string_val: "B"
        string_val: "unknown"
        string_val: "C"
        string_val: "unknown"
        string_val: "unknown"
        string_val: "unknown"
        string_val: "unknown"
        string_val: "unknown"
        string_val: "unknown"
        string_val: "unknown"
        string_val: "C"
        string_val: "unknown"
        string_val: "C"
        string_val: "C"
        string_val: "unknown"
        string_val: "E"
        string_val: "D"
        string_val: "E"
        string_val: "unknown"
        string_val: "E"
        string_val: "unknown"
        string_val: "unknown"
        string_val: "unknown"
        string_val: "unknown"
        string_val: "unknown"
        string_val: "unknown"
        string_val: "unknown"
        string_val: "D"
        string_val: "A"
        string_val: "unknown"
        string_val: "unknown"
        string_val: "unknown"
        string_val: "unknown"
        string_val: "unknown"
        string_val: "unknown"
        string_val: "B"
        string_val: "unknown"
        string_val: "C"
        string_val: "B"
        string_val: "unknown"
        string_val: "unknown"
        string_val: "unknown"
        string_val: "unknown"
        string_val: "C"
        string_val: "unknown"
        string_val: "unknown"
        string_val: "unknown"
        string_val: "C"
        string_val: "unknown"
        string_val: "unknown"
        string_val: "unknown"
        string_val: "unknown"
        string_val: "unknown"
        string_val: "D"
        string_val: "F"
        string_val: "unknown"
        string_val: "unknown"
        string_val: "B"
        string_val: "unknown"
        string_val: "B"
        string_val: "unknown"
        string_val: "unknown"
        string_val: "unknown"
        string_val: "C"
        string_val: "unknown"
        string_val: "unknown"
        string_val: "unknown"
        string_val: "unknown"
        string_val: "unknown"
        string_val: "unknown"
        string_val: "B"
        string_val: "unknown"
        string_val: "B"
        string_val: "B"
        string_val: "unknown"
        string_val: "unknown"
        string_val: "C"
        string_val: "unknown"
        string_val: "unknown"
        string_val: "unknown"
        string_val: "C"
        string_val: "unknown"
        string_val: "unknown"
        string_val: "unknown"
        string_val: "A"
        string_val: "unknown"
        string_val: "E"
        string_val: "unknown"
        string_val: "unknown"
        string_val: "unknown"
        string_val: "unknown"
        string_val: "unknown"
        string_val: "unknown"
        string_val: "unknown"
        string_val: "unknown"
        string_val: "unknown"
        string_val: "C"
        string_val: "E"
        string_val: "unknown"
        string_val: "unknown"
        string_val: "unknown"
        string_val: "A"
        string_val: "unknown"
        string_val: "B"
        string_val: "unknown"
        string_val: "unknown"
        string_val: "D"
        string_val: "unknown"
        string_val: "unknown"
        string_val: "unknown"
        string_val: "unknown"
        string_val: "unknown"
        string_val: "unknown"
        string_val: "unknown"
        string_val: "A"
        string_val: "unknown"
        string_val: "unknown"
        string_val: "unknown"
        string_val: "unknown"
        string_val: "unknown"
        string_val: "C"
        string_val: "unknown"
        string_val: "unknown"
        string_val: "unknown"
        string_val: "unknown"
        string_val: "unknown"
        string_val: "unknown"
        string_val: "unknown"
        string_val: "unknown"
        string_val: "D"
        string_val: "unknown"
        string_val: "D"
        string_val: "unknown"
        string_val: "unknown"
        string_val: "A"
        string_val: "unknown"
        string_val: "B"
        string_val: "unknown"
        string_val: "unknown"
        string_val: "unknown"
        string_val: "unknown"
        string_val: "unknown"
        string_val: "unknown"
        string_val: "unknown"
        string_val: "unknown"
        string_val: "D"
        string_val: "unknown"
        string_val: "unknown"
        string_val: "unknown"
        string_val: "unknown"
        string_val: "unknown"
        string_val: "unknown"
        string_val: "unknown"
        string_val: "unknown"
        string_val: "unknown"
        string_val: "E"
        string_val: "unknown"
        string_val: "unknown"
        string_val: "unknown"
        string_val: "unknown"
        string_val: "unknown"
        string_val: "unknown"
        string_val: "B"
        string_val: "unknown"
        string_val: "unknown"
        string_val: "unknown"
        string_val: "unknown"
        string_val: "B"
        string_val: "D"
        string_val: "unknown"
        string_val: "unknown"
        string_val: "unknown"
        string_val: "unknown"
        string_val: "unknown"
        string_val: "B"
        string_val: "B"
        string_val: "unknown"
        string_val: "unknown"
        string_val: "unknown"
        string_val: "unknown"
        string_val: "C"
        string_val: "E"
        string_val: "unknown"
        string_val: "unknown"
        string_val: "unknown"
        string_val: "unknown"
        string_val: "C"
        string_val: "C"
        string_val: "C"
        string_val: "unknown"
        string_val: "F"
        string_val: "C"
        string_val: "E"
        string_val: "unknown"
        string_val: "unknown"
        string_val: "unknown"
        string_val: "unknown"
        string_val: "E"
        string_val: "unknown"
        string_val: "unknown"
        string_val: "unknown"
        string_val: "B"
        string_val: "unknown"
        string_val: "unknown"
        string_val: "unknown"
        string_val: "unknown"
        string_val: "B"
        string_val: "unknown"
        string_val: "unknown"
        string_val: "C"
        string_val: "B"
        string_val: "unknown"
        string_val: "B"
        string_val: "unknown"
        string_val: "E"
        string_val: "unknown"
        string_val: "unknown"
        string_val: "unknown"
        string_val: "unknown"
        string_val: "unknown"
        string_val: "unknown"
        string_val: "unknown"
        string_val: "unknown"
        string_val: "D"
        string_val: "unknown"
        string_val: "unknown"
        string_val: "unknown"
        string_val: "unknown"
        string_val: "E"
        string_val: "unknown"
        string_val: "F"
        string_val: "unknown"
        string_val: "B"
        string_val: "D"
        string_val: "unknown"
        string_val: "unknown"
        string_val: "unknown"
        string_val: "B"
        string_val: "unknown"
        string_val: "unknown"
        string_val: "unknown"
        string_val: "unknown"
        string_val: "unknown"
        string_val: "unknown"
        string_val: "D"
        string_val: "unknown"
        string_val: "unknown"
        string_val: "unknown"
        string_val: "unknown"
        string_val: "unknown"
        string_val: "B"
        string_val: "unknown"
        string_val: "A"
        string_val: "unknown"
        string_val: "E"
        string_val: "unknown"
        string_val: "unknown"
        string_val: "unknown"
        string_val: "unknown"
        string_val: "B"
        string_val: "unknown"
        string_val: "unknown"
        string_val: "unknown"
        string_val: "B"
        string_val: "unknown"
        string_val: "unknown"
        string_val: "unknown"
        string_val: "unknown"
        string_val: "unknown"
        string_val: "unknown"
        string_val: "unknown"
        string_val: "unknown"
        string_val: "unknown"
        string_val: "E"
        string_val: "unknown"
        string_val: "unknown"
        string_val: "C"
        string_val: "unknown"
        string_val: "unknown"
        string_val: "unknown"
        string_val: "unknown"
        string_val: "unknown"
        string_val: "unknown"
        string_val: "unknown"
        string_val: "C"
        string_val: "unknown"
        string_val: "D"
        string_val: "unknown"
        string_val: "unknown"
        string_val: "E"
        string_val: "unknown"
        string_val: "unknown"
        string_val: "unknown"
        string_val: "unknown"
        string_val: "unknown"
        string_val: "A"
        string_val: "unknown"
        string_val: "unknown"
        string_val: "D"
        string_val: "B"
        string_val: "unknown"
        string_val: "unknown"
        string_val: "unknown"
        string_val: "unknown"
        string_val: "unknown"
        string_val: "unknown"
        string_val: "unknown"
        string_val: "unknown"
        string_val: "unknown"
        string_val: "B"
        string_val: "unknown"
        string_val: "unknown"
      }
    }
  }
}
node {
  name: "normalize_element/component_4"
  op: "Const"
  device: "/device:CPU:0"
  attr {
    key: "_output_shapes"
    value {
      list {
        shape {
          dim {
            size: 627
          }
        }
      }
    }
  }
  attr {
    key: "dtype"
    value {
      type: DT_STRING
    }
  }
  attr {
    key: "value"
    value {
      tensor {
        dtype: DT_STRING
        tensor_shape {
          dim {
            size: 627
          }
        }
        string_val: "Southampton"
        string_val: "Cherbourg"
        string_val: "Southampton"
        string_val: "Southampton"
        string_val: "Queenstown"
        string_val: "Southampton"
        string_val: "Southampton"
        string_val: "Cherbourg"
        string_val: "Southampton"
        string_val: "Southampton"
        string_val: "Southampton"
        string_val: "Southampton"
        string_val: "Queenstown"
        string_val: "Southampton"
        string_val: "Southampton"
        string_val: "Cherbourg"
        string_val: "Southampton"
        string_val: "Southampton"
        string_val: "Southampton"
        string_val: "Cherbourg"
        string_val: "Southampton"
        string_val: "Queenstown"
        string_val: "Southampton"
        string_val: "Cherbourg"
        string_val: "Cherbourg"
        string_val: "Queenstown"
        string_val: "Southampton"
        string_val: "Cherbourg"
        string_val: "Southampton"
        string_val: "Cherbourg"
        string_val: "Cherbourg"
        string_val: "Southampton"
        string_val: "Southampton"
        string_val: "Cherbourg"
        string_val: "Cherbourg"
        string_val: "Southampton"
        string_val: "Queenstown"
        string_val: "Cherbourg"
        string_val: "Southampton"
        string_val: "Southampton"
        string_val: "Cherbourg"
        string_val: "Southampton"
        string_val: "Cherbourg"
        string_val: "Southampton"
        string_val: "Southampton"
        string_val: "Cherbourg"
        string_val: "Southampton"
        string_val: "Cherbourg"
        string_val: "unknown"
        string_val: "Southampton"
        string_val: "Southampton"
        string_val: "Cherbourg"
        string_val: "Southampton"
        string_val: "Southampton"
        string_val: "Southampton"
        string_val: "Southampton"
        string_val: "Southampton"
        string_val: "Southampton"
        string_val: "Southampton"
        string_val: "Southampton"
        string_val: "Southampton"
        string_val: "Southampton"
        string_val: "Southampton"
        string_val: "Southampton"
        string_val: "Southampton"
        string_val: "Queenstown"
        string_val: "Southampton"
        string_val: "Southampton"
        string_val: "Southampton"
        string_val: "Southampton"
        string_val: "Southampton"
        string_val: "Southampton"
        string_val: "Southampton"
        string_val: "Southampton"
        string_val: "Cherbourg"
        string_val: "Cherbourg"
        string_val: "Southampton"
        string_val: "Southampton"
        string_val: "Southampton"
        string_val: "Southampton"
        string_val: "Southampton"
        string_val: "Southampton"
        string_val: "Southampton"
        string_val: "Southampton"
        string_val: "Southampton"
        string_val: "Queenstown"
        string_val: "Southampton"
        string_val: "Cherbourg"
        string_val: "Southampton"
        string_val: "Cherbourg"
        string_val: "Southampton"
        string_val: "Queenstown"
        string_val: "Southampton"
        string_val: "Cherbourg"
        string_val: "Southampton"
        string_val: "Cherbourg"
        string_val: "Southampton"
        string_val: "Queenstown"
        string_val: "Southampton"
        string_val: "Southampton"
        string_val: "Southampton"
        string_val: "Southampton"
        string_val: "Cherbourg"
        string_val: "Southampton"
        string_val: "Southampton"
        string_val: "Southampton"
        string_val: "Cherbourg"
        string_val: "Cherbourg"
        string_val: "Southampton"
        string_val: "Queenstown"
        string_val: "Southampton"
        string_val: "Southampton"
        string_val: "Southampton"
        string_val: "Southampton"
        string_val: "Southampton"
        string_val: "Southampton"
        string_val: "Cherbourg"
        string_val: "Queenstown"
        string_val: "Southampton"
        string_val: "Southampton"
        string_val: "Southampton"
        string_val: "Southampton"
        string_val: "Southampton"
        string_val: "Southampton"
        string_val: "Southampton"
        string_val: "Southampton"
        string_val: "Queenstown"
        string_val: "Southampton"
        string_val: "Southampton"
        string_val: "Cherbourg"
        string_val: "Southampton"
        string_val: "Southampton"
        string_val: "Southampton"
        string_val: "Cherbourg"
        string_val: "Southampton"
        string_val: "Southampton"
        string_val: "Queenstown"
        string_val: "Southampton"
        string_val: "Southampton"
        string_val: "Southampton"
        string_val: "Southampton"
        string_val: "Southampton"
        string_val: "Cherbourg"
        string_val: "Cherbourg"
        string_val: "Queenstown"
        string_val: "Queenstown"
        string_val: "Southampton"
        string_val: "Southampton"
        string_val: "Southampton"
        string_val: "Southampton"
        string_val: "Southampton"
        string_val: "Southampton"
        string_val: "Cherbourg"
        string_val: "Queenstown"
        string_val: "Cherbourg"
        string_val: "Southampton"
        string_val: "Southampton"
        string_val: "Queenstown"
        string_val: "Cherbourg"
        string_val: "Southampton"
        string_val: "Southampton"
        string_val: "Southampton"
        string_val: "Southampton"
        string_val: "Southampton"
        string_val: "Southampton"
        string_val: "Southampton"
        string_val: "Southampton"
        string_val: "Southampton"
        string_val: "Southampton"
        string_val: "Southampton"
        string_val: "Southampton"
        string_val: "Southampton"
        string_val: "Southampton"
        string_val: "Southampton"
        string_val: "Southampton"
        string_val: "Southampton"
        string_val: "Cherbourg"
        string_val: "Queenstown"
        string_val: "Southampton"
        string_val: "Cherbourg"
        string_val: "Queenstown"
        string_val: "Southampton"
        string_val: "Southampton"
        string_val: "Southampton"
        string_val: "Southampton"
        string_val: "Southampton"
        string_val: "Cherbourg"
        string_val: "Cherbourg"
        string_val: "Southampton"
        string_val: "Queenstown"
        string_val: "Southampton"
        string_val: "Southampton"
        string_val: "Queenstown"
        string_val: "Southampton"
        string_val: "Southampton"
        string_val: "Southampton"
        string_val: "Southampton"
        string_val: "Southampton"
        string_val: "Southampton"
        string_val: "Southampton"
        string_val: "Southampton"
        string_val: "Cherbourg"
        string_val: "Queenstown"
        string_val: "Southampton"
        string_val: "Southampton"
        string_val: "Southampton"
        string_val: "Queenstown"
        string_val: "Southampton"
        string_val: "Southampton"
        string_val: "Southampton"
        string_val: "Southampton"
        string_val: "Southampton"
        string_val: "Cherbourg"
        string_val: "Southampton"
        string_val: "Southampton"
        string_val: "Cherbourg"
        string_val: "Queenstown"
        string_val: "Southampton"
        string_val: "Queenstown"
        string_val: "Southampton"
        string_val: "Cherbourg"
        string_val: "Cherbourg"
        string_val: "Cherbourg"
        string_val: "Cherbourg"
        string_val: "Cherbourg"
        string_val: "Cherbourg"
        string_val: "Southampton"
        string_val: "Southampton"
        string_val: "Southampton"
        string_val: "Southampton"
        string_val: "Southampton"
        string_val: "Cherbourg"
        string_val: "Southampton"
        string_val: "Southampton"
        string_val: "Southampton"
        string_val: "Southampton"
        string_val: "Cherbourg"
        string_val: "Southampton"
        string_val: "Southampton"
        string_val: "Queenstown"
        string_val: "Southampton"
        string_val: "Southampton"
        string_val: "Southampton"
        string_val: "Southampton"
        string_val: "Southampton"
        string_val: "Southampton"
        string_val: "Southampton"
        string_val: "Southampton"
        string_val: "Southampton"
        string_val: "Southampton"
        string_val: "Southampton"
        string_val: "Southampton"
        string_val: "Cherbourg"
        string_val: "Southampton"
        string_val: "Cherbourg"
        string_val: "Southampton"
        string_val: "Southampton"
        string_val: "Southampton"
        string_val: "Queenstown"
        string_val: "Queenstown"
        string_val: "Southampton"
        string_val: "Cherbourg"
        string_val: "Cherbourg"
        string_val: "Southampton"
        string_val: "Queenstown"
        string_val: "Cherbourg"
        string_val: "Cherbourg"
        string_val: "Queenstown"
        string_val: "Cherbourg"
        string_val: "Southampton"
        string_val: "Southampton"
        string_val: "Cherbourg"
        string_val: "Cherbourg"
        string_val: "Southampton"
        string_val: "Cherbourg"
        string_val: "Southampton"
        string_val: "Southampton"
        string_val: "Southampton"
        string_val: "Southampton"
        string_val: "Queenstown"
        string_val: "Cherbourg"
        string_val: "Southampton"
        string_val: "Southampton"
        string_val: "Cherbourg"
        string_val: "Southampton"
        string_val: "Southampton"
        string_val: "Southampton"
        string_val: "Southampton"
        string_val: "Southampton"
        string_val: "Southampton"
        string_val: "Southampton"
        string_val: "Southampton"
        string_val: "Southampton"
        string_val: "Southampton"
        string_val: "Southampton"
        string_val: "Southampton"
        string_val: "Southampton"
        string_val: "Queenstown"
        string_val: "Southampton"
        string_val: "Southampton"
        string_val: "Southampton"
        string_val: "Southampton"
        string_val: "Southampton"
        string_val: "Southampton"
        string_val: "Cherbourg"
        string_val: "Queenstown"
        string_val: "Southampton"
        string_val: "Southampton"
        string_val: "Queenstown"
        string_val: "Southampton"
        string_val: "Southampton"
        string_val: "Southampton"
        string_val: "Southampton"
        string_val: "Southampton"
        string_val: "Southampton"
        string_val: "Southampton"
        string_val: "Southampton"
        string_val: "Southampton"
        string_val: "Southampton"
        string_val: "Southampton"
        string_val: "Southampton"
        string_val: "Southampton"
        string_val: "Southampton"
        string_val: "Southampton"
        string_val: "Cherbourg"
        string_val: "Southampton"
        string_val: "Southampton"
        string_val: "Cherbourg"
        string_val: "Cherbourg"
        string_val: "Cherbourg"
        string_val: "Southampton"
        string_val: "Southampton"
        string_val: "Southampton"
        string_val: "Southampton"
        string_val: "Southampton"
        string_val: "Southampton"
        string_val: "Southampton"
        string_val: "Southampton"
        string_val: "Queenstown"
        string_val: "Cherbourg"
        string_val: "Southampton"
        string_val: "Southampton"
        string_val: "Cherbourg"
        string_val: "Southampton"
        string_val: "Southampton"
        string_val: "Southampton"
        string_val: "Southampton"
        string_val: "Southampton"
        string_val: "Southampton"
        string_val: "Southampton"
        string_val: "Cherbourg"
        string_val: "Southampton"
        string_val: "Southampton"
        string_val: "Cherbourg"
        string_val: "Southampton"
        string_val: "Southampton"
        string_val: "Cherbourg"
        string_val: "Southampton"
        string_val: "Southampton"
        string_val: "Southampton"
        string_val: "Queenstown"
        string_val: "Southampton"
        string_val: "Cherbourg"
        string_val: "Southampton"
        string_val: "Southampton"
        string_val: "Southampton"
        string_val: "Cherbourg"
        string_val: "Southampton"
        string_val: "Southampton"
        string_val: "Southampton"
        string_val: "Southampton"
        string_val: "Southampton"
        string_val: "Southampton"
        string_val: "Southampton"
        string_val: "Cherbourg"
        string_val: "Cherbourg"
        string_val: "Queenstown"
        string_val: "Southampton"
        string_val: "Southampton"
        string_val: "Southampton"
        string_val: "Southampton"
        string_val: "Cherbourg"
        string_val: "Cherbourg"
        string_val: "Southampton"
        string_val: "Southampton"
        string_val: "Southampton"
        string_val: "Cherbourg"
        string_val: "Cherbourg"
        string_val: "Southampton"
        string_val: "Southampton"
        string_val: "Southampton"
        string_val: "Cherbourg"
        string_val: "Southampton"
        string_val: "Cherbourg"
        string_val: "Southampton"
        string_val: "Cherbourg"
        string_val: "Southampton"
        string_val: "Queenstown"
        string_val: "Southampton"
        string_val: "Cherbourg"
        string_val: "Cherbourg"
        string_val: "Southampton"
        string_val: "Southampton"
        string_val: "Queenstown"
        string_val: "Southampton"
        string_val: "Southampton"
        string_val: "Southampton"
        string_val: "Southampton"
        string_val: "Southampton"
        string_val: "Southampton"
        string_val: "Southampton"
        string_val: "Southampton"
        string_val: "Southampton"
        string_val: "Southampton"
        string_val: "Southampton"
        string_val: "Southampton"
        string_val: "Cherbourg"
        string_val: "Southampton"
        string_val: "Cherbourg"
        string_val: "Southampton"
        string_val: "Southampton"
        string_val: "Cherbourg"
        string_val: "Southampton"
        string_val: "Queenstown"
        string_val: "Southampton"
        string_val: "Southampton"
        string_val: "Southampton"
        string_val: "Southampton"
        string_val: "Cherbourg"
        string_val: "Cherbourg"
        string_val: "Cherbourg"
        string_val: "Southampton"
        string_val: "Southampton"
        string_val: "Southampton"
        string_val: "Cherbourg"
        string_val: "Southampton"
        string_val: "Southampton"
        string_val: "Southampton"
        string_val: "Queenstown"
        string_val: "Southampton"
        string_val: "Southampton"
        string_val: "Southampton"
        string_val: "Southampton"
        string_val: "Cherbourg"
        string_val: "Southampton"
        string_val: "Queenstown"
        string_val: "Southampton"
        string_val: "Southampton"
        string_val: "Queenstown"
        string_val: "Southampton"
        string_val: "Southampton"
        string_val: "Cherbourg"
        string_val: "Southampton"
        string_val: "Southampton"
        string_val: "Southampton"
        string_val: "Southampton"
        string_val: "Southampton"
        string_val: "Southampton"
        string_val: "Southampton"
        string_val: "Cherbourg"
        string_val: "Cherbourg"
        string_val: "Southampton"
        string_val: "Southampton"
        string_val: "Southampton"
        string_val: "Southampton"
        string_val: "Southampton"
        string_val: "Southampton"
        string_val: "Southampton"
        string_val: "Queenstown"
        string_val: "Southampton"
        string_val: "Southampton"
        string_val: "Southampton"
        string_val: "Southampton"
        string_val: "Southampton"
        string_val: "Southampton"
        string_val: "Southampton"
        string_val: "Southampton"
        string_val: "Southampton"
        string_val: "Southampton"
        string_val: "Southampton"
        string_val: "Southampton"
        string_val: "Southampton"
        string_val: "Cherbourg"
        string_val: "Cherbourg"
        string_val: "Southampton"
        string_val: "Southampton"
        string_val: "Southampton"
        string_val: "Southampton"
        string_val: "Southampton"
        string_val: "Southampton"
        string_val: "Southampton"
        string_val: "Cherbourg"
        string_val: "Southampton"
        string_val: "Southampton"
        string_val: "Queenstown"
        string_val: "Cherbourg"
        string_val: "Southampton"
        string_val: "Queenstown"
        string_val: "Southampton"
        string_val: "Southampton"
        string_val: "Cherbourg"
        string_val: "Cherbourg"
        string_val: "Southampton"
        string_val: "Southampton"
        string_val: "Southampton"
        string_val: "Southampton"
        string_val: "Cherbourg"
        string_val: "Southampton"
        string_val: "Queenstown"
        string_val: "Southampton"
        string_val: "Southampton"
        string_val: "Southampton"
        string_val: "Southampton"
        string_val: "Southampton"
        string_val: "Southampton"
        string_val: "Southampton"
        string_val: "Southampton"
        string_val: "Cherbourg"
        string_val: "Southampton"
        string_val: "Southampton"
        string_val: "Southampton"
        string_val: "Cherbourg"
        string_val: "Southampton"
        string_val: "Southampton"
        string_val: "Southampton"
        string_val: "Cherbourg"
        string_val: "Southampton"
        string_val: "Southampton"
        string_val: "Southampton"
        string_val: "Southampton"
        string_val: "Southampton"
        string_val: "Southampton"
        string_val: "Southampton"
        string_val: "Southampton"
        string_val: "Southampton"
        string_val: "Southampton"
        string_val: "Southampton"
        string_val: "Cherbourg"
        string_val: "Southampton"
        string_val: "Cherbourg"
        string_val: "Queenstown"
        string_val: "Southampton"
        string_val: "Southampton"
        string_val: "Southampton"
        string_val: "Southampton"
        string_val: "Queenstown"
        string_val: "Southampton"
        string_val: "Southampton"
        string_val: "Southampton"
        string_val: "Southampton"
        string_val: "Southampton"
        string_val: "Southampton"
        string_val: "Cherbourg"
        string_val: "Queenstown"
        string_val: "Southampton"
        string_val: "Southampton"
        string_val: "Cherbourg"
        string_val: "Southampton"
        string_val: "Southampton"
        string_val: "Southampton"
        string_val: "Southampton"
        string_val: "Cherbourg"
        string_val: "Southampton"
        string_val: "Southampton"
        string_val: "Southampton"
        string_val: "Southampton"
        string_val: "Southampton"
        string_val: "Southampton"
        string_val: "Southampton"
        string_val: "Southampton"
        string_val: "Southampton"
        string_val: "Southampton"
        string_val: "Southampton"
        string_val: "Southampton"
        string_val: "Southampton"
        string_val: "Southampton"
        string_val: "Cherbourg"
        string_val: "Southampton"
        string_val: "Southampton"
        string_val: "Southampton"
        string_val: "Southampton"
        string_val: "Queenstown"
        string_val: "Southampton"
        string_val: "Queenstown"
        string_val: "Cherbourg"
        string_val: "Cherbourg"
        string_val: "Southampton"
        string_val: "Southampton"
        string_val: "Cherbourg"
        string_val: "Southampton"
        string_val: "Southampton"
        string_val: "Cherbourg"
        string_val: "Southampton"
        string_val: "Cherbourg"
        string_val: "Cherbourg"
        string_val: "Southampton"
        string_val: "Southampton"
        string_val: "Cherbourg"
        string_val: "Southampton"
        string_val: "Cherbourg"
        string_val: "Southampton"
        string_val: "Southampton"
        string_val: "Southampton"
        string_val: "Southampton"
        string_val: "Southampton"
        string_val: "Cherbourg"
        string_val: "Southampton"
        string_val: "Southampton"
        string_val: "Southampton"
        string_val: "Cherbourg"
        string_val: "Southampton"
        string_val: "Southampton"
        string_val: "Southampton"
        string_val: "Southampton"
        string_val: "Southampton"
        string_val: "Southampton"
        string_val: "Cherbourg"
        string_val: "Cherbourg"
        string_val: "Southampton"
        string_val: "Southampton"
        string_val: "Southampton"
        string_val: "Southampton"
        string_val: "Southampton"
        string_val: "Southampton"
        string_val: "Southampton"
        string_val: "Southampton"
        string_val: "Queenstown"
      }
    }
  }
}
node {
  name: "normalize_element/component_5"
  op: "Const"
  device: "/device:CPU:0"
  attr {
    key: "_output_shapes"
    value {
      list {
        shape {
          dim {
            size: 627
          }
        }
      }
    }
  }
  attr {
    key: "dtype"
    value {
      type: DT_DOUBLE
    }
  }
  attr {
    key: "value"
    value {
      tensor {
        dtype: DT_DOUBLE
        tensor_shape {
          dim {
            size: 627
          }
        }
        tensor_content: "…"
      }
    }
  }
}
node {
  name: "normalize_element/component_6"
  op: "Const"
  device: "/device:CPU:0"
  attr {
    key: "_output_shapes"
    value {
      list {
        shape {
          dim {
            size: 627
          }
        }
      }
    }
  }
  attr {
    key: "dtype"
    value {
      type: DT_INT64
    }
  }
  attr {
    key: "value"
    value {
      tensor {
        dtype: DT_INT64
        tensor_shape {
          dim {
            size: 627
          }
        }
        tensor_content: "…"
      }
    }
  }
}
node {
  name: "normalize_element/component_7"
  op: "Const"
  device: "/device:CPU:0"
  attr {
    key: "_output_shapes"
    value {
      list {
        shape {
          dim {
            size: 627
          }
        }
      }
    }
  }
  attr {
    key: "dtype"
    value {
      type: DT_INT64
    }
  }
  attr {
    key: "value"
    value {
      tensor {
        dtype: DT_INT64
        tensor_shape {
          dim {
            size: 627
          }
        }
        tensor_content: "…"
      }
    }
  }
}
node {
  name: "normalize_element/component_8"
  op: "Const"
  device: "/device:CPU:0"
  attr {
    key: "_output_shapes"
    value {
      list {
        shape {
          dim {
            size: 627
          }
        }
      }
    }
  }
  attr {
    key: "dtype"
    value {
      type: DT_STRING
    }
  }
  attr {
    key: "value"
    value {
      tensor {
        dtype: DT_STRING
        tensor_shape {
          dim {
            size: 627
          }
        }
        string_val: "male"
        string_val: "female"
        string_val: "female"
        string_val: "female"
        string_val: "male"
        string_val: "male"
        string_val: "female"
        string_val: "female"
        string_val: "female"
        string_val: "male"
        string_val: "male"
        string_val: "female"
        string_val: "male"
        string_val: "male"
        string_val: "female"
        string_val: "female"
        string_val: "male"
        string_val: "male"
        string_val: "female"
        string_val: "male"
        string_val: "male"
        string_val: "female"
        string_val: "male"
        string_val: "male"
        string_val: "female"
        string_val: "female"
        string_val: "male"
        string_val: "male"
        string_val: "male"
        string_val: "male"
        string_val: "female"
        string_val: "female"
        string_val: "female"
        string_val: "male"
        string_val: "female"
        string_val: "male"
        string_val: "male"
        string_val: "male"
        string_val: "female"
        string_val: "male"
        string_val: "female"
        string_val: "female"
        string_val: "male"
        string_val: "male"
        string_val: "female"
        string_val: "male"
        string_val: "male"
        string_val: "male"
        string_val: "female"
        string_val: "male"
        string_val: "male"
        string_val: "male"
        string_val: "male"
        string_val: "female"
        string_val: "male"
        string_val: "male"
        string_val: "male"
        string_val: "male"
        string_val: "male"
        string_val: "male"
        string_val: "male"
        string_val: "male"
        string_val: "female"
        string_val: "male"
        string_val: "male"
        string_val: "female"
        string_val: "male"
        string_val: "male"
        string_val: "male"
        string_val: "female"
        string_val: "male"
        string_val: "male"
        string_val: "male"
        string_val: "male"
        string_val: "male"
        string_val: "male"
        string_val: "female"
        string_val: "male"
        string_val: "female"
        string_val: "male"
        string_val: "male"
        string_val: "male"
        string_val: "male"
        string_val: "male"
        string_val: "male"
        string_val: "female"
        string_val: "male"
        string_val: "female"
        string_val: "male"
        string_val: "female"
        string_val: "male"
        string_val: "male"
        string_val: "male"
        string_val: "male"
        string_val: "male"
        string_val: "male"
        string_val: "female"
        string_val: "male"
        string_val: "male"
        string_val: "male"
        string_val: "male"
        string_val: "female"
        string_val: "male"
        string_val: "female"
        string_val: "male"
        string_val: "male"
        string_val: "male"
        string_val: "female"
        string_val: "female"
        string_val: "male"
        string_val: "male"
        string_val: "female"
        string_val: "male"
        string_val: "male"
        string_val: "male"
        string_val: "male"
        string_val: "male"
        string_val: "female"
        string_val: "male"
        string_val: "male"
        string_val: "male"
        string_val: "male"
        string_val: "male"
        string_val: "male"
        string_val: "female"
        string_val: "male"
        string_val: "male"
        string_val: "male"
        string_val: "male"
        string_val: "female"
        string_val: "male"
        string_val: "male"
        string_val: "female"
        string_val: "male"
        string_val: "male"
        string_val: "female"
        string_val: "female"
        string_val: "male"
        string_val: "male"
        string_val: "female"
        string_val: "female"
        string_val: "male"
        string_val: "female"
        string_val: "female"
        string_val: "male"
        string_val: "female"
        string_val: "female"
        string_val: "male"
        string_val: "male"
        string_val: "male"
        string_val: "female"
        string_val: "male"
        string_val: "male"
        string_val: "female"
        string_val: "male"
        string_val: "female"
        string_val: "male"
        string_val: "male"
        string_val: "female"
        string_val: "female"
        string_val: "male"
        string_val: "male"
        string_val: "male"
        string_val: "male"
        string_val: "male"
        string_val: "male"
        string_val: "male"
        string_val: "male"
        string_val: "female"
        string_val: "female"
        string_val: "male"
        string_val: "male"
        string_val: "female"
        string_val: "male"
        string_val: "male"
        string_val: "male"
        string_val: "female"
        string_val: "female"
        string_val: "male"
        string_val: "male"
        string_val: "male"
        string_val: "female"
        string_val: "male"
        string_val: "female"
        string_val: "male"
        string_val: "female"
        string_val: "female"
        string_val: "female"
        string_val: "female"
        string_val: "male"
        string_val: "male"
        string_val: "male"
        string_val: "female"
        string_val: "male"
        string_val: "male"
        string_val: "male"
        string_val: "female"
        string_val: "female"
        string_val: "male"
        string_val: "male"
        string_val: "female"
        string_val: "male"
        string_val: "female"
        string_val: "female"
        string_val: "female"
        string_val: "male"
        string_val: "male"
        string_val: "female"
        string_val: "male"
        string_val: "male"
        string_val: "male"
        string_val: "female"
        string_val: "male"
        string_val: "male"
        string_val: "male"
        string_val: "female"
        string_val: "female"
        string_val: "male"
        string_val: "female"
        string_val: "male"
        string_val: "female"
        string_val: "female"
        string_val: "male"
        string_val: "female"
        string_val: "female"
        string_val: "female"
        string_val: "female"
        string_val: "male"
        string_val: "male"
        string_val: "female"
        string_val: "female"
        string_val: "female"
        string_val: "male"
        string_val: "male"
        string_val: "female"
        string_val: "male"
        string_val: "female"
        string_val: "male"
        string_val: "female"
        string_val: "female"
        string_val: "male"
        string_val: "female"
        string_val: "male"
        string_val: "male"
        string_val: "male"
        string_val: "male"
        string_val: "male"
        string_val: "male"
        string_val: "male"
        string_val: "female"
        string_val: "female"
        string_val: "female"
        string_val: "male"
        string_val: "male"
        string_val: "male"
        string_val: "male"
        string_val: "female"
        string_val: "female"
        string_val: "female"
        string_val: "female"
        string_val: "male"
        string_val: "male"
        string_val: "female"
        string_val: "male"
        string_val: "male"
        string_val: "female"
        string_val: "female"
        string_val: "female"
        string_val: "female"
        string_val: "male"
        string_val: "male"
        string_val: "female"
        string_val: "male"
        string_val: "male"
        string_val: "female"
        string_val: "male"
        string_val: "male"
        string_val: "male"
        string_val: "male"
        string_val: "male"
        string_val: "female"
        string_val: "male"
        string_val: "male"
        string_val: "female"
        string_val: "female"
        string_val: "male"
        string_val: "female"
        string_val: "male"
        string_val: "male"
        string_val: "male"
        string_val: "male"
        string_val: "male"
        string_val: "male"
        string_val: "male"
        string_val: "male"
        string_val: "female"
        string_val: "male"
        string_val: "male"
        string_val: "male"
        string_val: "male"
        string_val: "female"
        string_val: "female"
        string_val: "female"
        string_val: "male"
        string_val: "male"
        string_val: "male"
        string_val: "male"
        string_val: "female"
        string_val: "male"
        string_val: "male"
        string_val: "male"
        string_val: "female"
        string_val: "female"
        string_val: "male"
        string_val: "male"
        string_val: "female"
        string_val: "female"
        string_val: "male"
        string_val: "male"
        string_val: "female"
        string_val: "male"
        string_val: "female"
        string_val: "male"
        string_val: "male"
        string_val: "female"
        string_val: "male"
        string_val: "male"
        string_val: "male"
        string_val: "male"
        string_val: "male"
        string_val: "male"
        string_val: "female"
        string_val: "male"
        string_val: "male"
        string_val: "male"
        string_val: "male"
        string_val: "male"
        string_val: "male"
        string_val: "male"
        string_val: "female"
        string_val: "male"
        string_val: "female"
        string_val: "female"
        string_val: "male"
        string_val: "male"
        string_val: "male"
        string_val: "female"
        string_val: "male"
        string_val: "male"
        string_val: "female"
        string_val: "male"
        string_val: "female"
        string_val: "female"
        string_val: "male"
        string_val: "male"
        string_val: "male"
        string_val: "male"
        string_val: "male"
        string_val: "female"
        string_val: "male"
        string_val: "female"
        string_val: "female"
        string_val: "male"
        string_val: "female"
        string_val: "male"
        string_val: "male"
        string_val: "female"
        string_val: "male"
        string_val: "male"
        string_val: "female"
        string_val: "female"
        string_val: "male"
        string_val: "female"
        string_val: "male"
        string_val: "female"
        string_val: "male"
        string_val: "male"
        string_val: "female"
        string_val: "male"
        string_val: "male"
        string_val: "female"
        string_val: "male"
        string_val: "female"
        string_val: "female"
        string_val: "female"
        string_val: "male"
        string_val: "female"
        string_val: "female"
        string_val: "female"
        string_val: "female"
        string_val: "female"
        string_val: "male"
        string_val: "female"
        string_val: "male"
        string_val: "male"
        string_val: "male"
        string_val: "male"
        string_val: "male"
        string_val: "female"
        string_val: "female"
        string_val: "male"
        string_val: "female"
        string_val: "female"
        string_val: "male"
        string_val: "male"
        string_val: "male"
        string_val: "male"
        string_val: "male"
        string_val: "female"
        string_val: "male"
        string_val: "male"
        string_val: "female"
        string_val: "male"
        string_val: "male"
        string_val: "female"
        string_val: "female"
        string_val: "male"
        string_val: "male"
        string_val: "male"
        string_val: "male"
        string_val: "male"
        string_val: "female"
        string_val: "male"
        string_val: "female"
        string_val: "male"
        string_val: "male"
        string_val: "female"
        string_val: "male"
        string_val: "male"
        string_val: "male"
        string_val: "male"
        string_val: "male"
        string_val: "male"
        string_val: "male"
        string_val: "female"
        string_val: "female"
        string_val: "female"
        string_val: "male"
        string_val: "female"
        string_val: "male"
        string_val: "female"
        string_val: "male"
        string_val: "male"
        string_val: "male"
        string_val: "male"
        string_val: "male"
        string_val: "female"
        string_val: "male"
        string_val: "male"
        string_val: "male"
        string_val: "male"
        string_val: "male"
        string_val: "female"
        string_val: "female"
        string_val: "male"
        string_val: "female"
        string_val: "male"
        string_val: "male"
        string_val: "male"
        string_val: "female"
        string_val: "male"
        string_val: "male"
        string_val: "female"
        string_val: "male"
        string_val: "female"
        string_val: "male"
        string_val: "male"
        string_val: "male"
        string_val: "female"
        string_val: "male"
        string_val: "male"
        string_val: "male"
        string_val: "male"
        string_val: "male"
        string_val: "male"
        string_val: "male"
        string_val: "female"
        string_val: "male"
        string_val: "male"
        string_val: "male"
        string_val: "male"
        string_val: "female"
        string_val: "male"
        string_val: "male"
        string_val: "male"
        string_val: "male"
        string_val: "male"
        string_val: "male"
        string_val: "male"
        string_val: "female"
        string_val: "male"
        string_val: "female"
        string_val: "male"
        string_val: "male"
        string_val: "female"
        string_val: "male"
        string_val: "male"
        string_val: "male"
        string_val: "male"
        string_val: "female"
        string_val: "male"
        string_val: "female"
        string_val: "male"
        string_val: "male"
        string_val: "male"
        string_val: "male"
        string_val: "female"
        string_val: "female"
        string_val: "male"
        string_val: "male"
        string_val: "female"
        string_val: "male"
        string_val: "male"
        string_val: "female"
        string_val: "male"
        string_val: "female"
        string_val: "female"
        string_val: "male"
        string_val: "male"
        string_val: "male"
        string_val: "male"
        string_val: "male"
        string_val: "male"
        string_val: "male"
        string_val: "male"
        string_val: "female"
        string_val: "male"
        string_val: "male"
        string_val: "female"
        string_val: "male"
        string_val: "male"
        string_val: "male"
        string_val: "female"
        string_val: "male"
        string_val: "male"
        string_val: "male"
        string_val: "male"
        string_val: "male"
        string_val: "female"
        string_val: "male"
        string_val: "male"
        string_val: "male"
        string_val: "male"
        string_val: "female"
        string_val: "male"
        string_val: "male"
        string_val: "female"
        string_val: "female"
        string_val: "male"
        string_val: "male"
        string_val: "male"
        string_val: "male"
        string_val: "male"
        string_val: "male"
        string_val: "male"
        string_val: "female"
        string_val: "male"
        string_val: "male"
        string_val: "male"
        string_val: "female"
        string_val: "female"
        string_val: "male"
        string_val: "female"
        string_val: "male"
        string_val: "female"
        string_val: "male"
        string_val: "male"
        string_val: "male"
        string_val: "male"
        string_val: "female"
        string_val: "male"
        string_val: "male"
        string_val: "male"
        string_val: "male"
        string_val: "male"
        string_val: "female"
        string_val: "male"
        string_val: "male"
        string_val: "female"
        string_val: "male"
        string_val: "male"
        string_val: "male"
        string_val: "male"
        string_val: "male"
        string_val: "female"
        string_val: "male"
        string_val: "male"
        string_val: "male"
        string_val: "female"
        string_val: "male"
        string_val: "male"
        string_val: "male"
        string_val: "male"
        string_val: "female"
        string_val: "male"
        string_val: "male"
        string_val: "male"
        string_val: "male"
        string_val: "male"
        string_val: "female"
        string_val: "male"
        string_val: "female"
        string_val: "female"
        string_val: "female"
        string_val: "male"
        string_val: "female"
        string_val: "male"
        string_val: "male"
        string_val: "female"
        string_val: "female"
        string_val: "male"
        string_val: "male"
        string_val: "male"
        string_val: "female"
        string_val: "male"
        string_val: "male"
        string_val: "female"
        string_val: "female"
        string_val: "male"
        string_val: "male"
        string_val: "male"
        string_val: "female"
        string_val: "male"
        string_val: "male"
        string_val: "female"
        string_val: "female"
        string_val: "male"
      }
    }
  }
}
node {
  name: "normalize_element/component_9"
  op: "Const"
  device: "/device:CPU:0"
  attr {
    key: "_output_shapes"
    value {
      list {
        shape {
          dim {
            size: 627
          }
        }
      }
    }
  }
  attr {
    key: "dtype"
    value {
      type: DT_INT64
    }
  }
  attr {
    key: "value"
    value {
      tensor {
        dtype: DT_INT64
        tensor_shape {
          dim {
            size: 627
          }
        }
        tensor_content: "…"
      }
    }
  }
}
node {
  name: "TensorSliceDataset"
  op: "TensorSliceDataset"
  input: "normalize_element/component_0"
  input: "normalize_element/component_1"
  input: "normalize_element/component_2"
  input: "normalize_element/component_3"
  input: "normalize_element/component_4"
  input: "normalize_element/component_5"
  input: "normalize_element/component_6"
  input: "normalize_element/component_7"
  input: "normalize_element/component_8"
  input: "normalize_element/component_9"
  device: "/device:CPU:0"
  attr {
    key: "Toutput_types"
    value {
      list {
        type: DT_DOUBLE
        type: DT_STRING
        type: DT_STRING
        type: DT_STRING
        type: DT_STRING
        type: DT_DOUBLE
        type: DT_INT64
        type: DT_INT64
        type: DT_STRING
        type: DT_INT64
      }
    }
  }
  attr {
    key: "_output_shapes"
    value {
      list {
        shape {
        }
      }
    }
  }
  attr {
    key: "is_files"
    value {
      b: false
    }
  }
  attr {
    key: "metadata"
    value {
      s: ""
    }
  }
  attr {
    key: "output_shapes"
    value {
      list {
        shape {
        }
        shape {
        }
        shape {
        }
        shape {
        }
        shape {
        }
        shape {
        }
        shape {
        }
        shape {
        }
        shape {
        }
        shape {
        }
      }
    }
  }
}
node {
  name: "buffer_size"
  op: "Const"
  device: "/device:CPU:0"
  attr {
    key: "_output_shapes"
    value {
      list {
        shape {
        }
      }
    }
  }
  attr {
    key: "dtype"
    value {
      type: DT_INT64
    }
  }
  attr {
    key: "value"
    value {
      tensor {
        dtype: DT_INT64
        tensor_shape {
        }
        int64_val: 1000
      }
    }
  }
}
node {
  name: "seed"
  op: "Const"
  device: "/device:CPU:0"
  attr {
    key: "_output_shapes"
    value {
      list {
        shape {
        }
      }
    }
  }
  attr {
    key: "dtype"
    value {
      type: DT_INT64
    }
  }
  attr {
    key: "value"
    value {
      tensor {
        dtype: DT_INT64
        tensor_shape {
        }
        int64_val: 0
      }
    }
  }
}
node {
  name: "seed2"
  op: "Const"
  device: "/device:CPU:0"
  attr {
    key: "_output_shapes"
    value {
      list {
        shape {
        }
      }
    }
  }
  attr {
    key: "dtype"
    value {
      type: DT_INT64
    }
  }
  attr {
    key: "value"
    value {
      tensor {
        dtype: DT_INT64
        tensor_shape {
        }
        int64_val: 0
      }
    }
  }
}
node {
  name: "ShuffleDataset"
  op: "ShuffleDataset"
  input: "TensorSliceDataset"
  input: "buffer_size"
  input: "seed"
  input: "seed2"
  device: "/device:CPU:0"
  attr {
    key: "_output_shapes"
    value {
      list {
        shape {
        }
      }
    }
  }
  attr {
    key: "metadata"
    value {
      s: ""
    }
  }
  attr {
    key: "output_shapes"
    value {
      list {
        shape {
        }
        shape {
        }
        shape {
        }
        shape {
        }
        shape {
        }
        shape {
        }
        shape {
        }
        shape {
        }
        shape {
        }
        shape {
        }
      }
    }
  }
  attr {
    key: "output_types"
    value {
      list {
        type: DT_DOUBLE
        type: DT_STRING
        type: DT_STRING
        type: DT_STRING
        type: DT_STRING
        type: DT_DOUBLE
        type: DT_INT64
        type: DT_INT64
        type: DT_STRING
        type: DT_INT64
      }
    }
  }
  attr {
    key: "reshuffle_each_iteration"
    value {
      b: true
    }
  }
}
node {
  name: "batch_size"
  op: "Const"
  device: "/device:CPU:0"
  attr {
    key: "_output_shapes"
    value {
      list {
        shape {
        }
      }
    }
  }
  attr {
    key: "dtype"
    value {
      type: DT_INT64
    }
  }
  attr {
    key: "value"
    value {
      tensor {
        dtype: DT_INT64
        tensor_shape {
        }
        int64_val: 32
      }
    }
  }
}
node {
  name: "drop_remainder"
  op: "Const"
  device: "/device:CPU:0"
  attr {
    key: "_output_shapes"
    value {
      list {
        shape {
        }
      }
    }
  }
  attr {
    key: "dtype"
    value {
      type: DT_BOOL
    }
  }
  attr {
    key: "value"
    value {
      tensor {
        dtype: DT_BOOL
        tensor_shape {
        }
        bool_val: false
      }
    }
  }
}
node {
  name: "BatchDatasetV2"
  op: "BatchDatasetV2"
  input: "ShuffleDataset"
  input: "batch_size"
  input: "drop_remainder"
  device: "/device:CPU:0"
  attr {
    key: "_output_shapes"
    value {
      list {
        shape {
        }
      }
    }
  }
  attr {
    key: "metadata"
    value {
      s: ""
    }
  }
  attr {
    key: "output_shapes"
    value {
      list {
        shape {
          dim {
            size: -1
          }
        }
        shape {
          dim {
            size: -1
          }
        }
        shape {
          dim {
            size: -1
          }
        }
        shape {
          dim {
            size: -1
          }
        }
        shape {
          dim {
            size: -1
          }
        }
        shape {
          dim {
            size: -1
          }
        }
        shape {
          dim {
            size: -1
          }
        }
        shape {
          dim {
            size: -1
          }
        }
        shape {
          dim {
            size: -1
          }
        }
        shape {
          dim {
            size: -1
          }
        }
      }
    }
  }
  attr {
    key: "output_types"
    value {
      list {
        type: DT_DOUBLE
        type: DT_STRING
        type: DT_STRING
        type: DT_STRING
        type: DT_STRING
        type: DT_DOUBLE
        type: DT_INT64
        type: DT_INT64
        type: DT_STRING
        type: DT_INT64
      }
    }
  }
  attr {
    key: "parallel_copy"
    value {
      b: false
    }
  }
}
node {
  name: "count"
  op: "Const"
  device: "/device:CPU:0"
  attr {
    key: "_output_shapes"
    value {
      list {
        shape {
        }
      }
    }
  }
  attr {
    key: "dtype"
    value {
      type: DT_INT64
    }
  }
  attr {
    key: "value"
    value {
      tensor {
        dtype: DT_INT64
        tensor_shape {
        }
        int64_val: 10
      }
    }
  }
}
node {
  name: "RepeatDataset"
  op: "RepeatDataset"
  input: "BatchDatasetV2"
  input: "count"
  device: "/device:CPU:0"
  attr {
    key: "_output_shapes"
    value {
      list {
        shape {
        }
      }
    }
  }
  attr {
    key: "metadata"
    value {
      s: ""
    }
  }
  attr {
    key: "output_shapes"
    value {
      list {
        shape {
          dim {
            size: -1
          }
        }
        shape {
          dim {
            size: -1
          }
        }
        shape {
          dim {
            size: -1
          }
        }
        shape {
          dim {
            size: -1
          }
        }
        shape {
          dim {
            size: -1
          }
        }
        shape {
          dim {
            size: -1
          }
        }
        shape {
          dim {
            size: -1
          }
        }
        shape {
          dim {
            size: -1
          }
        }
        shape {
          dim {
            size: -1
          }
        }
        shape {
          dim {
            size: -1
          }
        }
      }
    }
  }
  attr {
    key: "output_types"
    value {
      list {
        type: DT_DOUBLE
        type: DT_STRING
        type: DT_STRING
        type: DT_STRING
        type: DT_STRING
        type: DT_DOUBLE
        type: DT_INT64
        type: DT_INT64
        type: DT_STRING
        type: DT_INT64
      }
    }
  }
}
node {
  name: "IteratorV2"
  op: "IteratorV2"
  device: "/device:CPU:0"
  attr {
    key: "_class"
    value {
      list {
        s: "loc:@RepeatDataset"
      }
    }
  }
  attr {
    key: "_output_shapes"
    value {
      list {
        shape {
        }
      }
    }
  }
  attr {
    key: "container"
    value {
      s: ""
    }
  }
  attr {
    key: "output_shapes"
    value {
      list {
        shape {
          dim {
            size: -1
          }
        }
        shape {
          dim {
            size: -1
          }
        }
        shape {
          dim {
            size: -1
          }
        }
        shape {
          dim {
            size: -1
          }
        }
        shape {
          dim {
            size: -1
          }
        }
        shape {
          dim {
            size: -1
          }
        }
        shape {
          dim {
            size: -1
          }
        }
        shape {
          dim {
            size: -1
          }
        }
        shape {
          dim {
            size: -1
          }
        }
        shape {
          dim {
            size: -1
          }
        }
      }
    }
  }
  attr {
    key: "output_types"
    value {
      list {
        type: DT_DOUBLE
        type: DT_STRING
        type: DT_STRING
        type: DT_STRING
        type: DT_STRING
        type: DT_DOUBLE
        type: DT_INT64
        type: DT_INT64
        type: DT_STRING
        type: DT_INT64
      }
    }
  }
  attr {
    key: "shared_name"
    value {
      s: ""
    }
  }
}
node {
  name: "MakeIterator"
  op: "MakeIterator"
  input: "RepeatDataset"
  input: "IteratorV2"
  device: "/device:CPU:0"
  attr {
    key: "_class"
    value {
      list {
        s: "loc:@RepeatDataset"
      }
    }
  }
}
node {
  name: "IteratorToStringHandle"
  op: "IteratorToStringHandle"
  input: "IteratorV2"
  device: "/device:CPU:0"
  attr {
    key: "_class"
    value {
      list {
        s: "loc:@RepeatDataset"
      }
    }
  }
  attr {
    key: "_output_shapes"
    value {
      list {
        shape {
        }
      }
    }
  }
}
node {
  name: "IteratorGetNext"
  op: "IteratorGetNext"
  input: "IteratorV2"
  device: "/device:CPU:0"
  attr {
    key: "_class"
    value {
      list {
        s: "loc:@RepeatDataset"
      }
    }
  }
  attr {
    key: "_output_shapes"
    value {
      list {
        shape {
          dim {
            size: -1
          }
        }
        shape {
          dim {
            size: -1
          }
        }
        shape {
          dim {
            size: -1
          }
        }
        shape {
          dim {
            size: -1
          }
        }
        shape {
          dim {
            size: -1
          }
        }
        shape {
          dim {
            size: -1
          }
        }
        shape {
          dim {
            size: -1
          }
        }
        shape {
          dim {
            size: -1
          }
        }
        shape {
          dim {
            size: -1
          }
        }
        shape {
          dim {
            size: -1
          }
        }
      }
    }
  }
  attr {
    key: "output_shapes"
    value {
      list {
        shape {
          dim {
            size: -1
          }
        }
        shape {
          dim {
            size: -1
          }
        }
        shape {
          dim {
            size: -1
          }
        }
        shape {
          dim {
            size: -1
          }
        }
        shape {
          dim {
            size: -1
          }
        }
        shape {
          dim {
            size: -1
          }
        }
        shape {
          dim {
            size: -1
          }
        }
        shape {
          dim {
            size: -1
          }
        }
        shape {
          dim {
            size: -1
          }
        }
        shape {
          dim {
            size: -1
          }
        }
      }
    }
  }
  attr {
    key: "output_types"
    value {
      list {
        type: DT_DOUBLE
        type: DT_STRING
        type: DT_STRING
        type: DT_STRING
        type: DT_STRING
        type: DT_DOUBLE
        type: DT_INT64
        type: DT_INT64
        type: DT_STRING
        type: DT_INT64
      }
    }
  }
}
node {
  name: "linear/linear_model/Cast"
  op: "Cast"
  input: "IteratorGetNext"
  attr {
    key: "DstT"
    value {
      type: DT_FLOAT
    }
  }
  attr {
    key: "SrcT"
    value {
      type: DT_DOUBLE
    }
  }
  attr {
    key: "Truncate"
    value {
      b: false
    }
  }
  attr {
    key: "_output_shapes"
    value {
      list {
        shape {
          dim {
            size: -1
          }
        }
      }
    }
  }
}
node {
  name: "linear/linear_model/Cast_1"
  op: "Cast"
  input: "IteratorGetNext:5"
  attr {
    key: "DstT"
    value {
      type: DT_FLOAT
    }
  }
  attr {
    key: "SrcT"
    value {
      type: DT_DOUBLE
    }
  }
  attr {
    key: "Truncate"
    value {
      b: false
    }
  }
  attr {
    key: "_output_shapes"
    value {
      list {
        shape {
          dim {
            size: -1
          }
        }
      }
    }
  }
}
node {
  name: "linear/linear_model/age/weights/Initializer/zeros"
  op: "Const"
  attr {
    key: "_class"
    value {
      list {
        s: "loc:@linear/linear_model/age/weights"
      }
    }
  }
  attr {
    key: "_output_shapes"
    value {
      list {
        shape {
          dim {
            size: 1
          }
          dim {
            size: 1
          }
        }
      }
    }
  }
  attr {
    key: "dtype"
    value {
      type: DT_FLOAT
    }
  }
  attr {
    key: "value"
    value {
      tensor {
        dtype: DT_FLOAT
        tensor_shape {
          dim {
            size: 1
          }
          dim {
            size: 1
          }
        }
        float_val: 0.0
      }
    }
  }
}
node {
  name: "linear/linear_model/age/weights"
  op: "VarHandleOp"
  attr {
    key: "_class"
    value {
      list {
        s: "loc:@linear/linear_model/age/weights"
      }
    }
  }
  attr {
    key: "_output_shapes"
    value {
      list {
        shape {
        }
      }
    }
  }
  attr {
    key: "allowed_devices"
    value {
      list {
      }
    }
  }
  attr {
    key: "container"
    value {
      s: ""
    }
  }
  attr {
    key: "dtype"
    value {
      type: DT_FLOAT
    }
  }
  attr {
    key: "shape"
    value {
      shape {
        dim {
          size: 1
        }
        dim {
          size: 1
        }
      }
    }
  }
  attr {
    key: "shared_name"
    value {
      s: "linear/linear_model/age/weights"
    }
  }
}
node {
  name: "linear/linear_model/age/weights/IsInitialized/VarIsInitializedOp"
  op: "VarIsInitializedOp"
  input: "linear/linear_model/age/weights"
  attr {
    key: "_output_shapes"
    value {
      list {
        shape {
        }
      }
    }
  }
}
node {
  name: "linear/linear_model/age/weights/Assign"
  op: "AssignVariableOp"
  input: "linear/linear_model/age/weights"
  input: "linear/linear_model/age/weights/Initializer/zeros"
  attr {
    key: "dtype"
    value {
      type: DT_FLOAT
    }
  }
}
node {
  name: "linear/linear_model/age/weights/Read/ReadVariableOp"
  op: "ReadVariableOp"
  input: "linear/linear_model/age/weights"
  attr {
    key: "_output_shapes"
    value {
      list {
        shape {
          dim {
            size: 1
          }
          dim {
            size: 1
          }
        }
      }
    }
  }
  attr {
    key: "dtype"
    value {
      type: DT_FLOAT
    }
  }
}
node {
  name: "linear/linear_model/alone/weights/Initializer/zeros"
  op: "Const"
  attr {
    key: "_class"
    value {
      list {
        s: "loc:@linear/linear_model/alone/weights"
      }
    }
  }
  attr {
    key: "_output_shapes"
    value {
      list {
        shape {
          dim {
            size: 2
          }
          dim {
            size: 1
          }
        }
      }
    }
  }
  attr {
    key: "dtype"
    value {
      type: DT_FLOAT
    }
  }
  attr {
    key: "value"
    value {
      tensor {
        dtype: DT_FLOAT
        tensor_shape {
          dim {
            size: 2
          }
          dim {
            size: 1
          }
        }
        float_val: 0.0
      }
    }
  }
}
node {
  name: "linear/linear_model/alone/weights"
  op: "VarHandleOp"
  attr {
    key: "_class"
    value {
      list {
        s: "loc:@linear/linear_model/alone/weights"
      }
    }
  }
  attr {
    key: "_output_shapes"
    value {
      list {
        shape {
        }
      }
    }
  }
  attr {
    key: "allowed_devices"
    value {
      list {
      }
    }
  }
  attr {
    key: "container"
    value {
      s: ""
    }
  }
  attr {
    key: "dtype"
    value {
      type: DT_FLOAT
    }
  }
  attr {
    key: "shape"
    value {
      shape {
        dim {
          size: 2
        }
        dim {
          size: 1
        }
      }
    }
  }
  attr {
    key: "shared_name"
    value {
      s: "linear/linear_model/alone/weights"
    }
  }
}
node {
  name: "linear/linear_model/alone/weights/IsInitialized/VarIsInitializedOp"
  op: "VarIsInitializedOp"
  input: "linear/linear_model/alone/weights"
  attr {
    key: "_output_shapes"
    value {
      list {
        shape {
        }
      }
    }
  }
}
node {
  name: "linear/linear_model/alone/weights/Assign"
  op: "AssignVariableOp"
  input: "linear/linear_model/alone/weights"
  input: "linear/linear_model/alone/weights/Initializer/zeros"
  attr {
    key: "dtype"
    value {
      type: DT_FLOAT
    }
  }
}
node {
  name: "linear/linear_model/alone/weights/Read/ReadVariableOp"
  op: "ReadVariableOp"
  input: "linear/linear_model/alone/weights"
  attr {
    key: "_output_shapes"
    value {
      list {
        shape {
          dim {
            size: 2
          }
          dim {
            size: 1
          }
        }
      }
    }
  }
  attr {
    key: "dtype"
    value {
      type: DT_FLOAT
    }
  }
}
node {
  name: "linear/linear_model/class/weights/Initializer/zeros"
  op: "Const"
  attr {
    key: "_class"
    value {
      list {
        s: "loc:@linear/linear_model/class/weights"
      }
    }
  }
  attr {
    key: "_output_shapes"
    value {
      list {
        shape {
          dim {
            size: 3
          }
          dim {
            size: 1
          }
        }
      }
    }
  }
  attr {
    key: "dtype"
    value {
      type: DT_FLOAT
    }
  }
  attr {
    key: "value"
    value {
      tensor {
        dtype: DT_FLOAT
        tensor_shape {
          dim {
            size: 3
          }
          dim {
            size: 1
          }
        }
        float_val: 0.0
      }
    }
  }
}
node {
  name: "linear/linear_model/class/weights"
  op: "VarHandleOp"
  attr {
    key: "_class"
    value {
      list {
        s: "loc:@linear/linear_model/class/weights"
      }
    }
  }
  attr {
    key: "_output_shapes"
    value {
      list {
        shape {
        }
      }
    }
  }
  attr {
    key: "allowed_devices"
    value {
      list {
      }
    }
  }
  attr {
    key: "container"
    value {
      s: ""
    }
  }
  attr {
    key: "dtype"
    value {
      type: DT_FLOAT
    }
  }
  attr {
    key: "shape"
    value {
      shape {
        dim {
          size: 3
        }
        dim {
          size: 1
        }
      }
    }
  }
  attr {
    key: "shared_name"
    value {
      s: "linear/linear_model/class/weights"
    }
  }
}
node {
  name: "linear/linear_model/class/weights/IsInitialized/VarIsInitializedOp"
  op: "VarIsInitializedOp"
  input: "linear/linear_model/class/weights"
  attr {
    key: "_output_shapes"
    value {
      list {
        shape {
        }
      }
    }
  }
}
node {
  name: "linear/linear_model/class/weights/Assign"
  op: "AssignVariableOp"
  input: "linear/linear_model/class/weights"
  input: "linear/linear_model/class/weights/Initializer/zeros"
  attr {
    key: "dtype"
    value {
      type: DT_FLOAT
    }
  }
}
node {
  name: "linear/linear_model/class/weights/Read/ReadVariableOp"
  op: "ReadVariableOp"
  input: "linear/linear_model/class/weights"
  attr {
    key: "_output_shapes"
    value {
      list {
        shape {
          dim {
            size: 3
          }
          dim {
            size: 1
          }
        }
      }
    }
  }
  attr {
    key: "dtype"
    value {
      type: DT_FLOAT
    }
  }
}
node {
  name: "linear/linear_model/deck/weights/Initializer/zeros"
  op: "Const"
  attr {
    key: "_class"
    value {
      list {
        s: "loc:@linear/linear_model/deck/weights"
      }
    }
  }
  attr {
    key: "_output_shapes"
    value {
      list {
        shape {
          dim {
            size: 8
          }
          dim {
            size: 1
          }
        }
      }
    }
  }
  attr {
    key: "dtype"
    value {
      type: DT_FLOAT
    }
  }
  attr {
    key: "value"
    value {
      tensor {
        dtype: DT_FLOAT
        tensor_shape {
          dim {
            size: 8
          }
          dim {
            size: 1
          }
        }
        float_val: 0.0
      }
    }
  }
}
node {
  name: "linear/linear_model/deck/weights"
  op: "VarHandleOp"
  attr {
    key: "_class"
    value {
      list {
        s: "loc:@linear/linear_model/deck/weights"
      }
    }
  }
  attr {
    key: "_output_shapes"
    value {
      list {
        shape {
        }
      }
    }
  }
  attr {
    key: "allowed_devices"
    value {
      list {
      }
    }
  }
  attr {
    key: "container"
    value {
      s: ""
    }
  }
  attr {
    key: "dtype"
    value {
      type: DT_FLOAT
    }
  }
  attr {
    key: "shape"
    value {
      shape {
        dim {
          size: 8
        }
        dim {
          size: 1
        }
      }
    }
  }
  attr {
    key: "shared_name"
    value {
      s: "linear/linear_model/deck/weights"
    }
  }
}
node {
  name: "linear/linear_model/deck/weights/IsInitialized/VarIsInitializedOp"
  op: "VarIsInitializedOp"
  input: "linear/linear_model/deck/weights"
  attr {
    key: "_output_shapes"
    value {
      list {
        shape {
        }
      }
    }
  }
}
node {
  name: "linear/linear_model/deck/weights/Assign"
  op: "AssignVariableOp"
  input: "linear/linear_model/deck/weights"
  input: "linear/linear_model/deck/weights/Initializer/zeros"
  attr {
    key: "dtype"
    value {
      type: DT_FLOAT
    }
  }
}
node {
  name: "linear/linear_model/deck/weights/Read/ReadVariableOp"
  op: "ReadVariableOp"
  input: "linear/linear_model/deck/weights"
  attr {
    key: "_output_shapes"
    value {
      list {
        shape {
          dim {
            size: 8
          }
          dim {
            size: 1
          }
        }
      }
    }
  }
  attr {
    key: "dtype"
    value {
      type: DT_FLOAT
    }
  }
}
node {
  name: "linear/linear_model/embark_town/weights/Initializer/zeros"
  op: "Const"
  attr {
    key: "_class"
    value {
      list {
        s: "loc:@linear/linear_model/embark_town/weights"
      }
    }
  }
  attr {
    key: "_output_shapes"
    value {
      list {
        shape {
          dim {
            size: 4
          }
          dim {
            size: 1
          }
        }
      }
    }
  }
  attr {
    key: "dtype"
    value {
      type: DT_FLOAT
    }
  }
  attr {
    key: "value"
    value {
      tensor {
        dtype: DT_FLOAT
        tensor_shape {
          dim {
            size: 4
          }
          dim {
            size: 1
          }
        }
        float_val: 0.0
      }
    }
  }
}
node {
  name: "linear/linear_model/embark_town/weights"
  op: "VarHandleOp"
  attr {
    key: "_class"
    value {
      list {
        s: "loc:@linear/linear_model/embark_town/weights"
      }
    }
  }
  attr {
    key: "_output_shapes"
    value {
      list {
        shape {
        }
      }
    }
  }
  attr {
    key: "allowed_devices"
    value {
      list {
      }
    }
  }
  attr {
    key: "container"
    value {
      s: ""
    }
  }
  attr {
    key: "dtype"
    value {
      type: DT_FLOAT
    }
  }
  attr {
    key: "shape"
    value {
      shape {
        dim {
          size: 4
        }
        dim {
          size: 1
        }
      }
    }
  }
  attr {
    key: "shared_name"
    value {
      s: "linear/linear_model/embark_town/weights"
    }
  }
}
node {
  name: "linear/linear_model/embark_town/weights/IsInitialized/VarIsInitializedOp"
  op: "VarIsInitializedOp"
  input: "linear/linear_model/embark_town/weights"
  attr {
    key: "_output_shapes"
    value {
      list {
        shape {
        }
      }
    }
  }
}
node {
  name: "linear/linear_model/embark_town/weights/Assign"
  op: "AssignVariableOp"
  input: "linear/linear_model/embark_town/weights"
  input: "linear/linear_model/embark_town/weights/Initializer/zeros"
  attr {
    key: "dtype"
    value {
      type: DT_FLOAT
    }
  }
}
node {
  name: "linear/linear_model/embark_town/weights/Read/ReadVariableOp"
  op: "ReadVariableOp"
  input: "linear/linear_model/embark_town/weights"
  attr {
    key: "_output_shapes"
    value {
      list {
        shape {
          dim {
            size: 4
          }
          dim {
            size: 1
          }
        }
      }
    }
  }
  attr {
    key: "dtype"
    value {
      type: DT_FLOAT
    }
  }
}
node {
  name: "linear/linear_model/fare/weights/Initializer/zeros"
  op: "Const"
  attr {
    key: "_class"
    value {
      list {
        s: "loc:@linear/linear_model/fare/weights"
      }
    }
  }
  attr {
    key: "_output_shapes"
    value {
      list {
        shape {
          dim {
            size: 1
          }
          dim {
            size: 1
          }
        }
      }
    }
  }
  attr {
    key: "dtype"
    value {
      type: DT_FLOAT
    }
  }
  attr {
    key: "value"
    value {
      tensor {
        dtype: DT_FLOAT
        tensor_shape {
          dim {
            size: 1
          }
          dim {
            size: 1
          }
        }
        float_val: 0.0
      }
    }
  }
}
node {
  name: "linear/linear_model/fare/weights"
  op: "VarHandleOp"
  attr {
    key: "_class"
    value {
      list {
        s: "loc:@linear/linear_model/fare/weights"
      }
    }
  }
  attr {
    key: "_output_shapes"
    value {
      list {
        shape {
        }
      }
    }
  }
  attr {
    key: "allowed_devices"
    value {
      list {
      }
    }
  }
  attr {
    key: "container"
    value {
      s: ""
    }
  }
  attr {
    key: "dtype"
    value {
      type: DT_FLOAT
    }
  }
  attr {
    key: "shape"
    value {
      shape {
        dim {
          size: 1
        }
        dim {
          size: 1
        }
      }
    }
  }
  attr {
    key: "shared_name"
    value {
      s: "linear/linear_model/fare/weights"
    }
  }
}
node {
  name: "linear/linear_model/fare/weights/IsInitialized/VarIsInitializedOp"
  op: "VarIsInitializedOp"
  input: "linear/linear_model/fare/weights"
  attr {
    key: "_output_shapes"
    value {
      list {
        shape {
        }
      }
    }
  }
}
node {
  name: "linear/linear_model/fare/weights/Assign"
  op: "AssignVariableOp"
  input: "linear/linear_model/fare/weights"
  input: "linear/linear_model/fare/weights/Initializer/zeros"
  attr {
    key: "dtype"
    value {
      type: DT_FLOAT
    }
  }
}
node {
  name: "linear/linear_model/fare/weights/Read/ReadVariableOp"
  op: "ReadVariableOp"
  input: "linear/linear_model/fare/weights"
  attr {
    key: "_output_shapes"
    value {
      list {
        shape {
          dim {
            size: 1
          }
          dim {
            size: 1
          }
        }
      }
    }
  }
  attr {
    key: "dtype"
    value {
      type: DT_FLOAT
    }
  }
}
node {
  name: "linear/linear_model/n_siblings_spouses/weights/Initializer/zeros"
  op: "Const"
  attr {
    key: "_class"
    value {
      list {
        s: "loc:@linear/linear_model/n_siblings_spouses/weights"
      }
    }
  }
  attr {
    key: "_output_shapes"
    value {
      list {
        shape {
          dim {
            size: 7
          }
          dim {
            size: 1
          }
        }
      }
    }
  }
  attr {
    key: "dtype"
    value {
      type: DT_FLOAT
    }
  }
  attr {
    key: "value"
    value {
      tensor {
        dtype: DT_FLOAT
        tensor_shape {
          dim {
            size: 7
          }
          dim {
            size: 1
          }
        }
        float_val: 0.0
      }
    }
  }
}
node {
  name: "linear/linear_model/n_siblings_spouses/weights"
  op: "VarHandleOp"
  attr {
    key: "_class"
    value {
      list {
        s: "loc:@linear/linear_model/n_siblings_spouses/weights"
      }
    }
  }
  attr {
    key: "_output_shapes"
    value {
      list {
        shape {
        }
      }
    }
  }
  attr {
    key: "allowed_devices"
    value {
      list {
      }
    }
  }
  attr {
    key: "container"
    value {
      s: ""
    }
  }
  attr {
    key: "dtype"
    value {
      type: DT_FLOAT
    }
  }
  attr {
    key: "shape"
    value {
      shape {
        dim {
          size: 7
        }
        dim {
          size: 1
        }
      }
    }
  }
  attr {
    key: "shared_name"
    value {
      s: "linear/linear_model/n_siblings_spouses/weights"
    }
  }
}
node {
  name: "linear/linear_model/n_siblings_spouses/weights/IsInitialized/VarIsInitializedOp"
  op: "VarIsInitializedOp"
  input: "linear/linear_model/n_siblings_spouses/weights"
  attr {
    key: "_output_shapes"
    value {
      list {
        shape {
        }
      }
    }
  }
}
node {
  name: "linear/linear_model/n_siblings_spouses/weights/Assign"
  op: "AssignVariableOp"
  input: "linear/linear_model/n_siblings_spouses/weights"
  input: "linear/linear_model/n_siblings_spouses/weights/Initializer/zeros"
  attr {
    key: "dtype"
    value {
      type: DT_FLOAT
    }
  }
}
node {
  name: "linear/linear_model/n_siblings_spouses/weights/Read/ReadVariableOp"
  op: "ReadVariableOp"
  input: "linear/linear_model/n_siblings_spouses/weights"
  attr {
    key: "_output_shapes"
    value {
      list {
        shape {
          dim {
            size: 7
          }
          dim {
            size: 1
          }
        }
      }
    }
  }
  attr {
    key: "dtype"
    value {
      type: DT_FLOAT
    }
  }
}
node {
  name: "linear/linear_model/parch/weights/Initializer/zeros"
  op: "Const"
  attr {
    key: "_class"
    value {
      list {
        s: "loc:@linear/linear_model/parch/weights"
      }
    }
  }
  attr {
    key: "_output_shapes"
    value {
      list {
        shape {
          dim {
            size: 6
          }
          dim {
            size: 1
          }
        }
      }
    }
  }
  attr {
    key: "dtype"
    value {
      type: DT_FLOAT
    }
  }
  attr {
    key: "value"
    value {
      tensor {
        dtype: DT_FLOAT
        tensor_shape {
          dim {
            size: 6
          }
          dim {
            size: 1
          }
        }
        float_val: 0.0
      }
    }
  }
}
node {
  name: "linear/linear_model/parch/weights"
  op: "VarHandleOp"
  attr {
    key: "_class"
    value {
      list {
        s: "loc:@linear/linear_model/parch/weights"
      }
    }
  }
  attr {
    key: "_output_shapes"
    value {
      list {
        shape {
        }
      }
    }
  }
  attr {
    key: "allowed_devices"
    value {
      list {
      }
    }
  }
  attr {
    key: "container"
    value {
      s: ""
    }
  }
  attr {
    key: "dtype"
    value {
      type: DT_FLOAT
    }
  }
  attr {
    key: "shape"
    value {
      shape {
        dim {
          size: 6
        }
        dim {
          size: 1
        }
      }
    }
  }
  attr {
    key: "shared_name"
    value {
      s: "linear/linear_model/parch/weights"
    }
  }
}
node {
  name: "linear/linear_model/parch/weights/IsInitialized/VarIsInitializedOp"
  op: "VarIsInitializedOp"
  input: "linear/linear_model/parch/weights"
  attr {
    key: "_output_shapes"
    value {
      list {
        shape {
        }
      }
    }
  }
}
node {
  name: "linear/linear_model/parch/weights/Assign"
  op: "AssignVariableOp"
  input: "linear/linear_model/parch/weights"
  input: "linear/linear_model/parch/weights/Initializer/zeros"
  attr {
    key: "dtype"
    value {
      type: DT_FLOAT
    }
  }
}
node {
  name: "linear/linear_model/parch/weights/Read/ReadVariableOp"
  op: "ReadVariableOp"
  input: "linear/linear_model/parch/weights"
  attr {
    key: "_output_shapes"
    value {
      list {
        shape {
          dim {
            size: 6
          }
          dim {
            size: 1
          }
        }
      }
    }
  }
  attr {
    key: "dtype"
    value {
      type: DT_FLOAT
    }
  }
}
node {
  name: "linear/linear_model/sex/weights/Initializer/zeros"
  op: "Const"
  attr {
    key: "_class"
    value {
      list {
        s: "loc:@linear/linear_model/sex/weights"
      }
    }
  }
  attr {
    key: "_output_shapes"
    value {
      list {
        shape {
          dim {
            size: 2
          }
          dim {
            size: 1
          }
        }
      }
    }
  }
  attr {
    key: "dtype"
    value {
      type: DT_FLOAT
    }
  }
  attr {
    key: "value"
    value {
      tensor {
        dtype: DT_FLOAT
        tensor_shape {
          dim {
            size: 2
          }
          dim {
            size: 1
          }
        }
        float_val: 0.0
      }
    }
  }
}
node {
  name: "linear/linear_model/sex/weights"
  op: "VarHandleOp"
  attr {
    key: "_class"
    value {
      list {
        s: "loc:@linear/linear_model/sex/weights"
      }
    }
  }
  attr {
    key: "_output_shapes"
    value {
      list {
        shape {
        }
      }
    }
  }
  attr {
    key: "allowed_devices"
    value {
      list {
      }
    }
  }
  attr {
    key: "container"
    value {
      s: ""
    }
  }
  attr {
    key: "dtype"
    value {
      type: DT_FLOAT
    }
  }
  attr {
    key: "shape"
    value {
      shape {
        dim {
          size: 2
        }
        dim {
          size: 1
        }
      }
    }
  }
  attr {
    key: "shared_name"
    value {
      s: "linear/linear_model/sex/weights"
    }
  }
}
node {
  name: "linear/linear_model/sex/weights/IsInitialized/VarIsInitializedOp"
  op: "VarIsInitializedOp"
  input: "linear/linear_model/sex/weights"
  attr {
    key: "_output_shapes"
    value {
      list {
        shape {
        }
      }
    }
  }
}
node {
  name: "linear/linear_model/sex/weights/Assign"
  op: "AssignVariableOp"
  input: "linear/linear_model/sex/weights"
  input: "linear/linear_model/sex/weights/Initializer/zeros"
  attr {
    key: "dtype"
    value {
      type: DT_FLOAT
    }
  }
}
node {
  name: "linear/linear_model/sex/weights/Read/ReadVariableOp"
  op: "ReadVariableOp"
  input: "linear/linear_model/sex/weights"
  attr {
    key: "_output_shapes"
    value {
      list {
        shape {
          dim {
            size: 2
          }
          dim {
            size: 1
          }
        }
      }
    }
  }
  attr {
    key: "dtype"
    value {
      type: DT_FLOAT
    }
  }
}
node {
  name: "linear/linear_model/bias_weights/Initializer/zeros"
  op: "Const"
  attr {
    key: "_class"
    value {
      list {
        s: "loc:@linear/linear_model/bias_weights"
      }
    }
  }
  attr {
    key: "_output_shapes"
    value {
      list {
        shape {
          dim {
            size: 1
          }
        }
      }
    }
  }
  attr {
    key: "dtype"
    value {
      type: DT_FLOAT
    }
  }
  attr {
    key: "value"
    value {
      tensor {
        dtype: DT_FLOAT
        tensor_shape {
          dim {
            size: 1
          }
        }
        float_val: 0.0
      }
    }
  }
}
node {
  name: "linear/linear_model/bias_weights"
  op: "VarHandleOp"
  attr {
    key: "_class"
    value {
      list {
        s: "loc:@linear/linear_model/bias_weights"
      }
    }
  }
  attr {
    key: "_output_shapes"
    value {
      list {
        shape {
        }
      }
    }
  }
  attr {
    key: "allowed_devices"
    value {
      list {
      }
    }
  }
  attr {
    key: "container"
    value {
      s: ""
    }
  }
  attr {
    key: "dtype"
    value {
      type: DT_FLOAT
    }
  }
  attr {
    key: "shape"
    value {
      shape {
        dim {
          size: 1
        }
      }
    }
  }
  attr {
    key: "shared_name"
    value {
      s: "linear/linear_model/bias_weights"
    }
  }
}
node {
  name: "linear/linear_model/bias_weights/IsInitialized/VarIsInitializedOp"
  op: "VarIsInitializedOp"
  input: "linear/linear_model/bias_weights"
  attr {
    key: "_output_shapes"
    value {
      list {
        shape {
        }
      }
    }
  }
}
node {
  name: "linear/linear_model/bias_weights/Assign"
  op: "AssignVariableOp"
  input: "linear/linear_model/bias_weights"
  input: "linear/linear_model/bias_weights/Initializer/zeros"
  attr {
    key: "dtype"
    value {
      type: DT_FLOAT
    }
  }
}
node {
  name: "linear/linear_model/bias_weights/Read/ReadVariableOp"
  op: "ReadVariableOp"
  input: "linear/linear_model/bias_weights"
  attr {
    key: "_output_shapes"
    value {
      list {
        shape {
          dim {
            size: 1
          }
        }
      }
    }
  }
  attr {
    key: "dtype"
    value {
      type: DT_FLOAT
    }
  }
}
node {
  name: "linear/linear_model/linear/linear_model/linear/linear_model/age/ExpandDims/dim"
  op: "Const"
  attr {
    key: "_output_shapes"
    value {
      list {
        shape {
        }
      }
    }
  }
  attr {
    key: "dtype"
    value {
      type: DT_INT32
    }
  }
  attr {
    key: "value"
    value {
      tensor {
        dtype: DT_INT32
        tensor_shape {
        }
        int_val: -1
      }
    }
  }
}
node {
  name: "linear/linear_model/linear/linear_model/linear/linear_model/age/ExpandDims"
  op: "ExpandDims"
  input: "linear/linear_model/Cast"
  input: "linear/linear_model/linear/linear_model/linear/linear_model/age/ExpandDims/dim"
  attr {
    key: "T"
    value {
      type: DT_FLOAT
    }
  }
  attr {
    key: "Tdim"
    value {
      type: DT_INT32
    }
  }
  attr {
    key: "_output_shapes"
    value {
      list {
        shape {
          dim {
            size: -1
          }
          dim {
            size: 1
          }
        }
      }
    }
  }
}
node {
  name: "linear/linear_model/linear/linear_model/linear/linear_model/age/Shape"
  op: "Shape"
  input: "linear/linear_model/linear/linear_model/linear/linear_model/age/ExpandDims"
  attr {
    key: "T"
    value {
      type: DT_FLOAT
    }
  }
  attr {
    key: "_output_shapes"
    value {
      list {
        shape {
          dim {
            size: 2
          }
        }
      }
    }
  }
  attr {
    key: "out_type"
    value {
      type: DT_INT32
    }
  }
}
node {
  name: "linear/linear_model/linear/linear_model/linear/linear_model/age/strided_slice/stack"
  op: "Const"
  attr {
    key: "_output_shapes"
    value {
      list {
        shape {
          dim {
            size: 1
          }
        }
      }
    }
  }
  attr {
    key: "dtype"
    value {
      type: DT_INT32
    }
  }
  attr {
    key: "value"
    value {
      tensor {
        dtype: DT_INT32
        tensor_shape {
          dim {
            size: 1
          }
        }
        int_val: 0
      }
    }
  }
}
node {
  name: "linear/linear_model/linear/linear_model/linear/linear_model/age/strided_slice/stack_1"
  op: "Const"
  attr {
    key: "_output_shapes"
    value {
      list {
        shape {
          dim {
            size: 1
          }
        }
      }
    }
  }
  attr {
    key: "dtype"
    value {
      type: DT_INT32
    }
  }
  attr {
    key: "value"
    value {
      tensor {
        dtype: DT_INT32
        tensor_shape {
          dim {
            size: 1
          }
        }
        int_val: 1
      }
    }
  }
}
node {
  name: "linear/linear_model/linear/linear_model/linear/linear_model/age/strided_slice/stack_2"
  op: "Const"
  attr {
    key: "_output_shapes"
    value {
      list {
        shape {
          dim {
            size: 1
          }
        }
      }
    }
  }
  attr {
    key: "dtype"
    value {
      type: DT_INT32
    }
  }
  attr {
    key: "value"
    value {
      tensor {
        dtype: DT_INT32
        tensor_shape {
          dim {
            size: 1
          }
        }
        int_val: 1
      }
    }
  }
}
node {
  name: "linear/linear_model/linear/linear_model/linear/linear_model/age/strided_slice"
  op: "StridedSlice"
  input: "linear/linear_model/linear/linear_model/linear/linear_model/age/Shape"
  input: "linear/linear_model/linear/linear_model/linear/linear_model/age/strided_slice/stack"
  input: "linear/linear_model/linear/linear_model/linear/linear_model/age/strided_slice/stack_1"
  input: "linear/linear_model/linear/linear_model/linear/linear_model/age/strided_slice/stack_2"
  attr {
    key: "Index"
    value {
      type: DT_INT32
    }
  }
  attr {
    key: "T"
    value {
      type: DT_INT32
    }
  }
  attr {
    key: "_output_shapes"
    value {
      list {
        shape {
        }
      }
    }
  }
  attr {
    key: "begin_mask"
    value {
      i: 0
    }
  }
  attr {
    key: "ellipsis_mask"
    value {
      i: 0
    }
  }
  attr {
    key: "end_mask"
    value {
      i: 0
    }
  }
  attr {
    key: "new_axis_mask"
    value {
      i: 0
    }
  }
  attr {
    key: "shrink_axis_mask"
    value {
      i: 1
    }
  }
}
node {
  name: "linear/linear_model/linear/linear_model/linear/linear_model/age/Reshape/shape/1"
  op: "Const"
  attr {
    key: "_output_shapes"
    value {
      list {
        shape {
        }
      }
    }
  }
  attr {
    key: "dtype"
    value {
      type: DT_INT32
    }
  }
  attr {
    key: "value"
    value {
      tensor {
        dtype: DT_INT32
        tensor_shape {
        }
        int_val: 1
      }
    }
  }
}
node {
  name: "linear/linear_model/linear/linear_model/linear/linear_model/age/Reshape/shape"
  op: "Pack"
  input: "linear/linear_model/linear/linear_model/linear/linear_model/age/strided_slice"
  input: "linear/linear_model/linear/linear_model/linear/linear_model/age/Reshape/shape/1"
  attr {
    key: "N"
    value {
      i: 2
    }
  }
  attr {
    key: "T"
    value {
      type: DT_INT32
    }
  }
  attr {
    key: "_output_shapes"
    value {
      list {
        shape {
          dim {
            size: 2
          }
        }
      }
    }
  }
  attr {
    key: "axis"
    value {
      i: 0
    }
  }
}
node {
  name: "linear/linear_model/linear/linear_model/linear/linear_model/age/Reshape"
  op: "Reshape"
  input: "linear/linear_model/linear/linear_model/linear/linear_model/age/ExpandDims"
  input: "linear/linear_model/linear/linear_model/linear/linear_model/age/Reshape/shape"
  attr {
    key: "T"
    value {
      type: DT_FLOAT
    }
  }
  attr {
    key: "Tshape"
    value {
      type: DT_INT32
    }
  }
  attr {
    key: "_output_shapes"
    value {
      list {
        shape {
          dim {
            size: -1
          }
          dim {
            size: 1
          }
        }
      }
    }
  }
}
node {
  name: "linear/linear_model/linear/linear_model/linear/linear_model/age/weighted_sum/ReadVariableOp"
  op: "ReadVariableOp"
  input: "linear/linear_model/age/weights"
  attr {
    key: "_output_shapes"
    value {
      list {
        shape {
          dim {
            size: 1
          }
          dim {
            size: 1
          }
        }
      }
    }
  }
  attr {
    key: "dtype"
    value {
      type: DT_FLOAT
    }
  }
}
node {
  name: "linear/linear_model/linear/linear_model/linear/linear_model/age/weighted_sum"
  op: "MatMul"
  input: "linear/linear_model/linear/linear_model/linear/linear_model/age/Reshape"
  input: "linear/linear_model/linear/linear_model/linear/linear_model/age/weighted_sum/ReadVariableOp"
  attr {
    key: "T"
    value {
      type: DT_FLOAT
    }
  }
  attr {
    key: "_output_shapes"
    value {
      list {
        shape {
          dim {
            size: -1
          }
          dim {
            size: 1
          }
        }
      }
    }
  }
  attr {
    key: "transpose_a"
    value {
      b: false
    }
  }
  attr {
    key: "transpose_b"
    value {
      b: false
    }
  }
}
node {
  name: "linear/linear_model/linear/linear_model/linear/linear_model/alone/ExpandDims/dim"
  op: "Const"
  attr {
    key: "_output_shapes"
    value {
      list {
        shape {
        }
      }
    }
  }
  attr {
    key: "dtype"
    value {
      type: DT_INT32
    }
  }
  attr {
    key: "value"
    value {
      tensor {
        dtype: DT_INT32
        tensor_shape {
        }
        int_val: -1
      }
    }
  }
}
node {
  name: "linear/linear_model/linear/linear_model/linear/linear_model/alone/ExpandDims"
  op: "ExpandDims"
  input: "IteratorGetNext:1"
  input: "linear/linear_model/linear/linear_model/linear/linear_model/alone/ExpandDims/dim"
  attr {
    key: "T"
    value {
      type: DT_STRING
    }
  }
  attr {
    key: "Tdim"
    value {
      type: DT_INT32
    }
  }
  attr {
    key: "_output_shapes"
    value {
      list {
        shape {
          dim {
            size: -1
          }
          dim {
            size: 1
          }
        }
      }
    }
  }
}
node {
  name: "linear/linear_model/linear/linear_model/linear/linear_model/alone/to_sparse_input/ignore_value/x"
  op: "Const"
  attr {
    key: "_output_shapes"
    value {
      list {
        shape {
        }
      }
    }
  }
  attr {
    key: "dtype"
    value {
      type: DT_STRING
    }
  }
  attr {
    key: "value"
    value {
      tensor {
        dtype: DT_STRING
        tensor_shape {
        }
        string_val: ""
      }
    }
  }
}
node {
  name: "linear/linear_model/linear/linear_model/linear/linear_model/alone/to_sparse_input/NotEqual"
  op: "NotEqual"
  input: "linear/linear_model/linear/linear_model/linear/linear_model/alone/ExpandDims"
  input: "linear/linear_model/linear/linear_model/linear/linear_model/alone/to_sparse_input/ignore_value/x"
  attr {
    key: "T"
    value {
      type: DT_STRING
    }
  }
  attr {
    key: "_output_shapes"
    value {
      list {
        shape {
          dim {
            size: -1
          }
          dim {
            size: 1
          }
        }
      }
    }
  }
  attr {
    key: "incompatible_shape_error"
    value {
      b: true
    }
  }
}
node {
  name: "linear/linear_model/linear/linear_model/linear/linear_model/alone/to_sparse_input/indices"
  op: "Where"
  input: "linear/linear_model/linear/linear_model/linear/linear_model/alone/to_sparse_input/NotEqual"
  attr {
    key: "T"
    value {
      type: DT_BOOL
    }
  }
  attr {
    key: "_output_shapes"
    value {
      list {
        shape {
          dim {
            size: -1
          }
          dim {
            size: 2
          }
        }
      }
    }
  }
}
node {
  name: "linear/linear_model/linear/linear_model/linear/linear_model/alone/to_sparse_input/values"
  op: "GatherNd"
  input: "linear/linear_model/linear/linear_model/linear/linear_model/alone/ExpandDims"
  input: "linear/linear_model/linear/linear_model/linear/linear_model/alone/to_sparse_input/indices"
  attr {
    key: "Tindices"
    value {
      type: DT_INT64
    }
  }
  attr {
    key: "Tparams"
    value {
      type: DT_STRING
    }
  }
  attr {
    key: "_output_shapes"
    value {
      list {
        shape {
          dim {
            size: -1
          }
        }
      }
    }
  }
}
node {
  name: "linear/linear_model/linear/linear_model/linear/linear_model/alone/to_sparse_input/dense_shape"
  op: "Shape"
  input: "linear/linear_model/linear/linear_model/linear/linear_model/alone/ExpandDims"
  attr {
    key: "T"
    value {
      type: DT_STRING
    }
  }
  attr {
    key: "_output_shapes"
    value {
      list {
        shape {
          dim {
            size: 2
          }
        }
      }
    }
  }
  attr {
    key: "out_type"
    value {
      type: DT_INT64
    }
  }
}
node {
  name: "linear/linear_model/linear/linear_model/linear/linear_model/alone/alone_lookup/Const"
  op: "Const"
  attr {
    key: "_output_shapes"
    value {
      list {
        shape {
          dim {
            size: 2
          }
        }
      }
    }
  }
  attr {
    key: "dtype"
    value {
      type: DT_STRING
    }
  }
  attr {
    key: "value"
    value {
      tensor {
        dtype: DT_STRING
        tensor_shape {
          dim {
            size: 2
          }
        }
        string_val: "n"
        string_val: "y"
      }
    }
  }
}
node {
  name: "linear/linear_model/linear/linear_model/linear/linear_model/alone/alone_lookup/Size"
  op: "Const"
  attr {
    key: "_output_shapes"
    value {
      list {
        shape {
        }
      }
    }
  }
  attr {
    key: "dtype"
    value {
      type: DT_INT32
    }
  }
  attr {
    key: "value"
    value {
      tensor {
        dtype: DT_INT32
        tensor_shape {
        }
        int_val: 2
      }
    }
  }
}
node {
  name: "linear/linear_model/linear/linear_model/linear/linear_model/alone/alone_lookup/range/start"
  op: "Const"
  attr {
    key: "_output_shapes"
    value {
      list {
        shape {
        }
      }
    }
  }
  attr {
    key: "dtype"
    value {
      type: DT_INT32
    }
  }
  attr {
    key: "value"
    value {
      tensor {
        dtype: DT_INT32
        tensor_shape {
        }
        int_val: 0
      }
    }
  }
}
node {
  name: "linear/linear_model/linear/linear_model/linear/linear_model/alone/alone_lookup/range/delta"
  op: "Const"
  attr {
    key: "_output_shapes"
    value {
      list {
        shape {
        }
      }
    }
  }
  attr {
    key: "dtype"
    value {
      type: DT_INT32
    }
  }
  attr {
    key: "value"
    value {
      tensor {
        dtype: DT_INT32
        tensor_shape {
        }
        int_val: 1
      }
    }
  }
}
node {
  name: "linear/linear_model/linear/linear_model/linear/linear_model/alone/alone_lookup/range"
  op: "Range"
  input: "linear/linear_model/linear/linear_model/linear/linear_model/alone/alone_lookup/range/start"
  input: "linear/linear_model/linear/linear_model/linear/linear_model/alone/alone_lookup/Size"
  input: "linear/linear_model/linear/linear_model/linear/linear_model/alone/alone_lookup/range/delta"
  attr {
    key: "Tidx"
    value {
      type: DT_INT32
    }
  }
  attr {
    key: "_output_shapes"
    value {
      list {
        shape {
          dim {
            size: 2
          }
        }
      }
    }
  }
}
node {
  name: "linear/linear_model/linear/linear_model/linear/linear_model/alone/alone_lookup/Cast"
  op: "Cast"
  input: "linear/linear_model/linear/linear_model/linear/linear_model/alone/alone_lookup/range"
  attr {
    key: "DstT"
    value {
      type: DT_INT64
    }
  }
  attr {
    key: "SrcT"
    value {
      type: DT_INT32
    }
  }
  attr {
    key: "Truncate"
    value {
      b: false
    }
  }
  attr {
    key: "_output_shapes"
    value {
      list {
        shape {
          dim {
            size: 2
          }
        }
      }
    }
  }
}
node {
  name: "linear/linear_model/linear/linear_model/linear/linear_model/alone/alone_lookup/hash_table/Const"
  op: "Const"
  attr {
    key: "_output_shapes"
    value {
      list {
        shape {
        }
      }
    }
  }
  attr {
    key: "dtype"
    value {
      type: DT_INT64
    }
  }
  attr {
    key: "value"
    value {
      tensor {
        dtype: DT_INT64
        tensor_shape {
        }
        int64_val: -1
      }
    }
  }
}
node {
  name: "linear/linear_model/linear/linear_model/linear/linear_model/alone/alone_lookup/hash_table/hash_table"
  op: "HashTableV2"
  attr {
    key: "_output_shapes"
    value {
      list {
        shape {
        }
      }
    }
  }
  attr {
    key: "container"
    value {
      s: ""
    }
  }
  attr {
    key: "key_dtype"
    value {
      type: DT_STRING
    }
  }
  attr {
    key: "shared_name"
    value {
      s: "hash_table_c5724541-d24a-434e-8986-10e7ff7e0f16"
    }
  }
  attr {
    key: "use_node_name_sharing"
    value {
      b: false
    }
  }
  attr {
…
      input: "count_nonzero_notequal_zero_fraction_readvariableop"
      input: "count_nonzero/zeros:output:0"
      attr {
        key: "T"
        value {
          type: DT_FLOAT
        }
      }
      attr {
        key: "_output_shapes"
        value {
          list {
            shape {
              dim {
                size: 4
              }
              dim {
                size: 1
              }
            }
          }
        }
      }
      attr {
        key: "incompatible_shape_error"
        value {
          b: true
        }
      }
    }
    node_def {
      name: "count_nonzero/Cast"
      op: "Cast"
      input: "count_nonzero/NotEqual:z:0"
      attr {
        key: "DstT"
        value {
          type: DT_INT32
        }
      }
      attr {
        key: "SrcT"
        value {
          type: DT_BOOL
        }
      }
      attr {
        key: "Truncate"
        value {
          b: false
        }
      }
      attr {
        key: "_output_shapes"
        value {
          list {
            shape {
              dim {
                size: 4
              }
              dim {
                size: 1
              }
            }
          }
        }
      }
    }
    node_def {
      name: "count_nonzero/Const"
      op: "Const"
      attr {
        key: "_output_shapes"
        value {
          list {
            shape {
              dim {
                size: 2
              }
            }
          }
        }
      }
      attr {
        key: "dtype"
        value {
          type: DT_INT32
        }
      }
      attr {
        key: "value"
        value {
          tensor {
            dtype: DT_INT32
            tensor_shape {
              dim {
                size: 2
              }
            }
            tensor_content: "\000\000\000\000\001\000\000\000"
          }
        }
      }
    }
    node_def {
      name: "count_nonzero/nonzero_count"
      op: "Sum"
      input: "count_nonzero/Cast:y:0"
      input: "count_nonzero/Const:output:0"
      attr {
        key: "T"
        value {
          type: DT_INT32
        }
      }
      attr {
        key: "Tidx"
        value {
          type: DT_INT32
        }
      }
      attr {
        key: "_output_shapes"
        value {
          list {
            shape {
            }
          }
        }
      }
      attr {
        key: "keep_dims"
        value {
          b: false
        }
      }
    }
    node_def {
      name: "Cast"
      op: "Cast"
      input: "count_nonzero/nonzero_count:output:0"
      attr {
        key: "DstT"
        value {
          type: DT_INT64
        }
      }
      attr {
        key: "SrcT"
        value {
          type: DT_INT32
        }
      }
      attr {
        key: "Truncate"
        value {
          b: false
        }
      }
      attr {
        key: "_output_shapes"
        value {
          list {
            shape {
            }
          }
        }
      }
    }
    ret {
      key: "cast"
      value: "Cast:y:0"
    }
    attr {
      key: "_input_shapes"
      value {
        list {
          shape {
            dim {
              size: 4
            }
            dim {
              size: 1
            }
          }
        }
      }
    }
    arg_attr {
      value {
        attr {
          key: "_output_shapes"
          value {
            list {
              shape {
                dim {
                  size: 4
                }
                dim {
                  size: 1
                }
              }
            }
          }
        }
      }
    }
  }
  function {
    signature {
      name: "head_losses_check_label_range_assert_non_negative_assert_less_equal_Assert_AssertGuard_false_37876"
      input_arg {
        name: "assert_head_losses_check_label_range_assert_non_negative_assert_less_equal_all"
        type: DT_BOOL
      }
      input_arg {
        name: "assert_head_losses_cast"
        type: DT_FLOAT
      }
      output_arg {
        name: "identity"
        type: DT_BOOL
      }
      is_stateful: true
    }
    node_def {
      name: "Assert/data_0"
      op: "Const"
      attr {
        key: "_output_shapes"
        value {
          list {
            shape {
            }
          }
        }
      }
      attr {
        key: "dtype"
        value {
          type: DT_STRING
        }
      }
      attr {
        key: "value"
        value {
          tensor {
            dtype: DT_STRING
            tensor_shape {
            }
            string_val: "Labels must be >= 0.  "
          }
        }
      }
    }
    node_def {
      name: "Assert/data_1"
      op: "Const"
      attr {
        key: "_output_shapes"
        value {
          list {
            shape {
            }
          }
        }
      }
      attr {
        key: "dtype"
        value {
          type: DT_STRING
        }
      }
      attr {
        key: "value"
        value {
          tensor {
            dtype: DT_STRING
            tensor_shape {
            }
            string_val: "Condition x >= 0 did not hold element-wise:"
          }
        }
      }
    }
    node_def {
      name: "Assert/data_2"
      op: "Const"
      attr {
        key: "_output_shapes"
        value {
          list {
            shape {
            }
          }
        }
      }
      attr {
        key: "dtype"
        value {
          type: DT_STRING
        }
      }
      attr {
        key: "value"
        value {
          tensor {
            dtype: DT_STRING
            tensor_shape {
            }
            string_val: "x (head/losses/Cast:0) = "
          }
        }
      }
    }
    node_def {
      name: "Assert"
      op: "Assert"
      input: "assert_head_losses_check_label_range_assert_non_negative_assert_less_equal_all"
      input: "Assert/data_0:output:0"
      input: "Assert/data_1:output:0"
      input: "Assert/data_2:output:0"
      input: "assert_head_losses_cast"
      attr {
        key: "T"
        value {
          list {
            type: DT_STRING
            type: DT_STRING
            type: DT_STRING
            type: DT_FLOAT
          }
        }
      }
      attr {
        key: "_output_shapes"
        value {
          list {
          }
        }
      }
      attr {
        key: "summarize"
        value {
          i: 3
        }
      }
    }
    node_def {
      name: "Identity"
      op: "Identity"
      input: "assert_head_losses_check_label_range_assert_non_negative_assert_less_equal_all"
      input: "^Assert"
      attr {
        key: "T"
        value {
          type: DT_BOOL
        }
      }
      attr {
        key: "_output_shapes"
        value {
          list {
            shape {
            }
          }
        }
      }
    }
    ret {
      key: "identity"
      value: "Identity:output:0"
    }
    attr {
      key: "_input_shapes"
      value {
        list {
          shape {
          }
          shape {
            dim {
              size: -1
            }
            dim {
              size: 1
            }
          }
        }
      }
    }
    arg_attr {
      value {
        attr {
          key: "_output_shapes"
          value {
            list {
              shape {
              }
            }
          }
        }
      }
    }
    arg_attr {
      key: 1
      value {
        attr {
          key: "_output_shapes"
          value {
            list {
              shape {
                dim {
                  size: -1
                }
                dim {
                  size: 1
                }
              }
            }
          }
        }
      }
    }
  }
  function {
    signature {
      name: "zero_fraction_total_zero_zero_count_5_false_37600"
      input_arg {
        name: "zero_fraction_readvariableop_linear_linear_model_fare_weights"
        type: DT_RESOURCE
        handle_data {
          dtype: DT_FLOAT
          shape {
            dim {
              size: 1
            }
            dim {
              size: 1
            }
          }
        }
      }
      input_arg {
        name: "cast_zero_fraction_total_size_size_5"
        type: DT_INT64
      }
      output_arg {
        name: "mul"
        type: DT_FLOAT
      }
      is_stateful: true
    }
    node_def {
      name: "zero_fraction/ReadVariableOp"
      op: "ReadVariableOp"
      input: "zero_fraction_readvariableop_linear_linear_model_fare_weights"
      attr {
        key: "_output_shapes"
        value {
          list {
            shape {
              dim {
                size: 1
              }
              dim {
                size: 1
              }
            }
          }
        }
      }
      attr {
        key: "dtype"
        value {
          type: DT_FLOAT
        }
      }
    }
    node_def {
      name: "zero_fraction/Size"
      op: "Const"
      attr {
        key: "_output_shapes"
        value {
          list {
            shape {
            }
          }
        }
      }
      attr {
        key: "dtype"
        value {
          type: DT_INT64
        }
      }
      attr {
        key: "value"
        value {
          tensor {
            dtype: DT_INT64
            tensor_shape {
            }
            int64_val: 1
          }
        }
      }
    }
    node_def {
      name: "zero_fraction/LessEqual/y"
      op: "Const"
      attr {
        key: "_output_shapes"
        value {
          list {
            shape {
            }
          }
        }
      }
      attr {
        key: "dtype"
        value {
          type: DT_INT64
        }
      }
      attr {
        key: "value"
        value {
          tensor {
            dtype: DT_INT64
            tensor_shape {
            }
            int64_val: 2147483647
          }
        }
      }
    }
    node_def {
      name: "zero_fraction/LessEqual"
      op: "LessEqual"
      input: "zero_fraction/Size:output:0"
      input: "zero_fraction/LessEqual/y:output:0"
      attr {
        key: "T"
        value {
          type: DT_INT64
        }
      }
      attr {
        key: "_output_shapes"
        value {
          list {
            shape {
            }
          }
        }
      }
    }
    node_def {
      name: "zero_fraction/cond"
      op: "StatelessIf"
      input: "zero_fraction/LessEqual:z:0"
      input: "zero_fraction/ReadVariableOp:value:0"
      attr {
        key: "Tcond"
        value {
          type: DT_BOOL
        }
      }
      attr {
        key: "Tin"
        value {
          list {
            type: DT_FLOAT
          }
        }
      }
      attr {
        key: "Tout"
        value {
          list {
            type: DT_INT64
          }
        }
      }
      attr {
        key: "_lower_using_switch_merge"
        value {
          b: true
        }
      }
      attr {
        key: "_output_shapes"
        value {
          list {
            shape {
            }
          }
        }
      }
      attr {
        key: "_read_only_resource_inputs"
        value {
          list {
          }
        }
      }
      attr {
        key: "else_branch"
        value {
          func {
            name: "zero_fraction_cond_false_37610"
          }
        }
      }
      attr {
        key: "output_shapes"
        value {
          list {
            shape {
            }
          }
        }
      }
      attr {
        key: "then_branch"
        value {
          func {
            name: "zero_fraction_cond_true_37609"
          }
        }
      }
    }
    node_def {
      name: "zero_fraction/cond/Identity"
      op: "Identity"
      input: "zero_fraction/cond:output:0"
      attr {
        key: "T"
        value {
          type: DT_INT64
        }
      }
      attr {
        key: "_output_shapes"
        value {
          list {
            shape {
            }
          }
        }
      }
    }
    node_def {
      name: "zero_fraction/counts_to_fraction/sub"
      op: "Sub"
      input: "zero_fraction/Size:output:0"
      input: "zero_fraction/cond/Identity:output:0"
      attr {
        key: "T"
        value {
          type: DT_INT64
        }
      }
      attr {
        key: "_output_shapes"
        value {
          list {
            shape {
            }
          }
        }
      }
    }
    node_def {
      name: "zero_fraction/counts_to_fraction/Cast"
      op: "Cast"
      input: "zero_fraction/counts_to_fraction/sub:z:0"
      attr {
        key: "DstT"
        value {
          type: DT_FLOAT
        }
      }
      attr {
        key: "SrcT"
        value {
          type: DT_INT64
        }
      }
      attr {
        key: "Truncate"
        value {
          b: false
        }
      }
      attr {
        key: "_output_shapes"
        value {
          list {
            shape {
            }
          }
        }
      }
    }
    node_def {
      name: "zero_fraction/counts_to_fraction/Cast_1"
      op: "Cast"
      input: "zero_fraction/Size:output:0"
      attr {
        key: "DstT"
        value {
          type: DT_FLOAT
        }
      }
      attr {
        key: "SrcT"
        value {
          type: DT_INT64
        }
      }
      attr {
        key: "Truncate"
        value {
          b: false
        }
      }
      attr {
        key: "_output_shapes"
        value {
          list {
            shape {
            }
          }
        }
      }
    }
    node_def {
      name: "zero_fraction/counts_to_fraction/truediv"
      op: "RealDiv"
      input: "zero_fraction/counts_to_fraction/Cast:y:0"
      input: "zero_fraction/counts_to_fraction/Cast_1:y:0"
      attr {
        key: "T"
        value {
          type: DT_FLOAT
        }
      }
      attr {
        key: "_output_shapes"
        value {
          list {
            shape {
            }
          }
        }
      }
    }
    node_def {
      name: "zero_fraction/fraction"
      op: "Identity"
      input: "zero_fraction/counts_to_fraction/truediv:z:0"
      attr {
        key: "T"
        value {
          type: DT_FLOAT
        }
      }
      attr {
        key: "_output_shapes"
        value {
          list {
            shape {
            }
          }
        }
      }
    }
    node_def {
      name: "Cast"
      op: "Cast"
      input: "cast_zero_fraction_total_size_size_5"
      attr {
        key: "DstT"
        value {
          type: DT_FLOAT
        }
      }
      attr {
        key: "SrcT"
        value {
          type: DT_INT64
        }
      }
      attr {
        key: "Truncate"
        value {
          b: false
        }
      }
      attr {
        key: "_output_shapes"
        value {
          list {
            shape {
            }
          }
        }
      }
    }
    node_def {
      name: "mul_0"
      op: "Mul"
      input: "zero_fraction/fraction:output:0"
      input: "Cast:y:0"
      attr {
        key: "T"
        value {
          type: DT_FLOAT
        }
      }
    }
    ret {
      key: "mul"
      value: "mul_0:z:0"
    }
    attr {
      key: "_input_shapes"
      value {
        list {
          shape {
          }
          shape {
          }
        }
      }
    }
    arg_attr {
      key: 1
      value {
        attr {
          key: "_output_shapes"
          value {
            list {
              shape {
              }
            }
          }
        }
      }
    }
  }
  function {
    signature {
      name: "zero_fraction_total_zero_zero_count_8_true_37728"
      input_arg {
        name: "placeholder"
        type: DT_RESOURCE
      }
      input_arg {
        name: "placeholder_1"
        type: DT_INT64
      }
      output_arg {
        name: "const"
        type: DT_FLOAT
      }
    }
    node_def {
      name: "Const"
      op: "Const"
      attr {
        key: "_output_shapes"
        value {
          list {
            shape {
            }
          }
        }
      }
      attr {
        key: "dtype"
        value {
          type: DT_FLOAT
        }
      }
      attr {
        key: "value"
        value {
          tensor {
            dtype: DT_FLOAT
            tensor_shape {
            }
            float_val: 0.0
          }
        }
      }
    }
    ret {
      key: "const"
      value: "Const:output:0"
    }
    attr {
      key: "_input_shapes"
      value {
        list {
          shape {
          }
          shape {
          }
        }
      }
    }
    arg_attr {
      key: 1
      value {
        attr {
          key: "_output_shapes"
          value {
            list {
              shape {
              }
            }
          }
        }
      }
    }
  }
  function {
    signature {
      name: "global_step_cond_false_36627"
      input_arg {
        name: "placeholder"
        type: DT_RESOURCE
      }
      input_arg {
        name: "global_step_initializer_zeros_0"
        type: DT_INT64
      }
      output_arg {
        name: "global_step_initializer_zeros"
        type: DT_INT64
      }
    }
    ret {
      key: "global_step_initializer_zeros"
      value: "global_step_initializer_zeros_0"
    }
    attr {
      key: "_input_shapes"
      value {
        list {
          shape {
          }
          shape {
          }
        }
      }
    }
    arg_attr {
      key: 1
      value {
        attr {
          key: "_output_shapes"
          value {
            list {
              shape {
              }
            }
          }
        }
      }
    }
  }
  function {
    signature {
      name: "head_losses_check_label_range_assert_less_equal_Assert_AssertGuard_false_37851"
      input_arg {
        name: "assert_head_losses_check_label_range_assert_less_equal_all"
        type: DT_BOOL
      }
      input_arg {
        name: "assert_head_losses_cast"
        type: DT_FLOAT
      }
      input_arg {
        name: "assert_head_losses_check_label_range_const"
        type: DT_FLOAT
      }
      output_arg {
        name: "identity"
        type: DT_BOOL
      }
      is_stateful: true
    }
    node_def {
      name: "Assert/data_0"
      op: "Const"
      attr {
        key: "_output_shapes"
        value {
          list {
            shape {
            }
          }
        }
      }
      attr {
        key: "dtype"
        value {
          type: DT_STRING
        }
      }
      attr {
        key: "value"
        value {
          tensor {
            dtype: DT_STRING
            tensor_shape {
            }
            string_val: "Labels must be <= n_classes - 1"
          }
        }
      }
    }
    node_def {
      name: "Assert/data_1"
      op: "Const"
      attr {
        key: "_output_shapes"
        value {
          list {
            shape {
            }
          }
        }
      }
      attr {
        key: "dtype"
        value {
          type: DT_STRING
        }
      }
      attr {
        key: "value"
        value {
          tensor {
            dtype: DT_STRING
            tensor_shape {
            }
            string_val: "Condition x <= y did not hold element-wise:"
          }
        }
      }
    }
    node_def {
      name: "Assert/data_2"
      op: "Const"
      attr {
        key: "_output_shapes"
        value {
          list {
            shape {
            }
          }
        }
      }
      attr {
        key: "dtype"
        value {
          type: DT_STRING
        }
      }
      attr {
        key: "value"
        value {
          tensor {
            dtype: DT_STRING
            tensor_shape {
            }
            string_val: "x (head/losses/Cast:0) = "
          }
        }
      }
    }
    node_def {
      name: "Assert/data_4"
      op: "Const"
      attr {
        key: "_output_shapes"
        value {
          list {
            shape {
            }
          }
        }
      }
      attr {
        key: "dtype"
        value {
          type: DT_STRING
        }
      }
      attr {
        key: "value"
        value {
          tensor {
            dtype: DT_STRING
            tensor_shape {
            }
            string_val: "y (head/losses/check_label_range/Const:0) = "
          }
        }
      }
    }
    node_def {
      name: "Assert"
      op: "Assert"
      input: "assert_head_losses_check_label_range_assert_less_equal_all"
      input: "Assert/data_0:output:0"
      input: "Assert/data_1:output:0"
      input: "Assert/data_2:output:0"
      input: "assert_head_losses_cast"
      input: "Assert/data_4:output:0"
      input: "assert_head_losses_check_label_range_const"
      attr {
        key: "T"
        value {
          list {
            type: DT_STRING
            type: DT_STRING
            type: DT_STRING
            type: DT_FLOAT
            type: DT_STRING
            type: DT_FLOAT
          }
        }
      }
      attr {
        key: "_output_shapes"
        value {
          list {
          }
        }
      }
      attr {
        key: "summarize"
        value {
          i: 3
        }
      }
    }
    node_def {
      name: "Identity"
      op: "Identity"
      input: "assert_head_losses_check_label_range_assert_less_equal_all"
      input: "^Assert"
      attr {
        key: "T"
        value {
          type: DT_BOOL
        }
      }
      attr {
        key: "_output_shapes"
        value {
          list {
            shape {
            }
          }
        }
      }
    }
    ret {
      key: "identity"
      value: "Identity:output:0"
    }
    attr {
      key: "_input_shapes"
      value {
        list {
          shape {
          }
          shape {
            dim {
              size: -1
            }
            dim {
              size: 1
            }
          }
          shape {
          }
        }
      }
    }
    arg_attr {
      value {
        attr {
          key: "_output_shapes"
          value {
            list {
              shape {
              }
            }
          }
        }
      }
    }
    arg_attr {
      key: 1
      value {
        attr {
          key: "_output_shapes"
          value {
            list {
              shape {
                dim {
                  size: -1
                }
                dim {
                  size: 1
                }
              }
            }
          }
        }
      }
    }
    arg_attr {
      key: 2
      value {
        attr {
          key: "_output_shapes"
          value {
            list {
              shape {
              }
            }
          }
        }
      }
    }
  }
  function {
    signature {
      name: "zero_fraction_cond_true_37695"
      input_arg {
        name: "count_nonzero_notequal_zero_fraction_readvariableop"
        type: DT_FLOAT
      }
      output_arg {
        name: "cast"
        type: DT_INT64
      }
    }
    node_def {
      name: "count_nonzero/zeros"
      op: "Const"
      attr {
        key: "_output_shapes"
        value {
          list {
            shape {
            }
          }
        }
      }
      attr {
        key: "dtype"
        value {
          type: DT_FLOAT
        }
      }
      attr {
        key: "value"
        value {
          tensor {
            dtype: DT_FLOAT
            tensor_shape {
            }
            float_val: 0.0
          }
        }
      }
    }
    node_def {
      name: "count_nonzero/NotEqual"
      op: "NotEqual"
      input: "count_nonzero_notequal_zero_fraction_readvariableop"
      input: "count_nonzero/zeros:output:0"
      attr {
        key: "T"
        value {
          type: DT_FLOAT
        }
      }
      attr {
        key: "_output_shapes"
        value {
          list {
            shape {
              dim {
                size: 6
              }
              dim {
                size: 1
              }
            }
          }
        }
      }
      attr {
        key: "incompatible_shape_error"
        value {
          b: true
        }
      }
    }
    node_def {
      name: "count_nonzero/Cast"
      op: "Cast"
      input: "count_nonzero/NotEqual:z:0"
      attr {
        key: "DstT"
        value {
          type: DT_INT32
        }
      }
      attr {
        key: "SrcT"
        value {
          type: DT_BOOL
        }
      }
      attr {
        key: "Truncate"
        value {
          b: false
        }
      }
      attr {
        key: "_output_shapes"
        value {
          list {
            shape {
              dim {
                size: 6
              }
              dim {
                size: 1
              }
            }
          }
        }
      }
    }
    node_def {
      name: "count_nonzero/Const"
      op: "Const"
      attr {
        key: "_output_shapes"
        value {
          list {
            shape {
              dim {
                size: 2
              }
            }
          }
        }
      }
      attr {
        key: "dtype"
        value {
          type: DT_INT32
        }
      }
      attr {
        key: "value"
        value {
          tensor {
            dtype: DT_INT32
            tensor_shape {
              dim {
                size: 2
              }
            }
            tensor_content: "\000\000\000\000\001\000\000\000"
          }
        }
      }
    }
    node_def {
      name: "count_nonzero/nonzero_count"
      op: "Sum"
      input: "count_nonzero/Cast:y:0"
      input: "count_nonzero/Const:output:0"
      attr {
        key: "T"
        value {
          type: DT_INT32
        }
      }
      attr {
        key: "Tidx"
        value {
          type: DT_INT32
        }
      }
      attr {
        key: "_output_shapes"
        value {
          list {
            shape {
            }
          }
        }
      }
      attr {
        key: "keep_dims"
        value {
          b: false
        }
      }
    }
    node_def {
      name: "Cast"
      op: "Cast"
      input: "count_nonzero/nonzero_count:output:0"
      attr {
        key: "DstT"
        value {
          type: DT_INT64
        }
      }
      attr {
        key: "SrcT"
        value {
          type: DT_INT32
        }
      }
      attr {
        key: "Truncate"
        value {
          b: false
        }
      }
      attr {
        key: "_output_shapes"
        value {
          list {
            shape {
            }
          }
        }
      }
    }
    ret {
      key: "cast"
      value: "Cast:y:0"
    }
    attr {
      key: "_input_shapes"
      value {
        list {
          shape {
            dim {
              size: 6
            }
            dim {
              size: 1
            }
          }
        }
      }
    }
    arg_attr {
      value {
        attr {
          key: "_output_shapes"
          value {
            list {
              shape {
                dim {
                  size: 6
                }
                dim {
                  size: 1
                }
              }
            }
          }
        }
      }
    }
  }
  function {
    signature {
      name: "head_losses_check_label_range_assert_non_negative_assert_less_equal_Assert_AssertGuard_true_37875"
      input_arg {
        name: "identity_head_losses_check_label_range_assert_non_negative_assert_less_equal_all"
        type: DT_BOOL
      }
      input_arg {
        name: "placeholder"
        type: DT_FLOAT
      }
      output_arg {
        name: "identity"
        type: DT_BOOL
      }
    }
    node_def {
      name: "NoOp"
      op: "NoOp"
      attr {
        key: "_output_shapes"
        value {
          list {
          }
        }
      }
    }
    node_def {
      name: "Identity"
      op: "Identity"
      input: "identity_head_losses_check_label_range_assert_non_negative_assert_less_equal_all"
      input: "^NoOp"
      attr {
        key: "T"
        value {
          type: DT_BOOL
        }
      }
      attr {
        key: "_output_shapes"
        value {
          list {
            shape {
            }
          }
        }
      }
    }
    ret {
      key: "identity"
      value: "Identity:output:0"
    }
    attr {
      key: "_input_shapes"
      value {
        list {
          shape {
          }
          shape {
            dim {
              size: -1
            }
            dim {
              size: 1
            }
          }
        }
      }
    }
    arg_attr {
      value {
        attr {
          key: "_output_shapes"
          value {
            list {
              shape {
              }
            }
          }
        }
      }
    }
    arg_attr {
      key: 1
      value {
        attr {
          key: "_output_shapes"
          value {
            list {
              shape {
                dim {
                  size: -1
                }
                dim {
                  size: 1
                }
              }
            }
          }
        }
      }
    }
  }
  function {
    signature {
      name: "zero_fraction_total_zero_zero_count_1_true_37427"
      input_arg {
        name: "placeholder"
        type: DT_RESOURCE
      }
      input_arg {
        name: "placeholder_1"
        type: DT_INT64
      }
      output_arg {
        name: "const"
        type: DT_FLOAT
      }
    }
    node_def {
      name: "Const"
      op: "Const"
      attr {
        key: "_output_shapes"
        value {
          list {
            shape {
            }
          }
        }
      }
      attr {
        key: "dtype"
        value {
          type: DT_FLOAT
        }
      }
      attr {
        key: "value"
        value {
          tensor {
            dtype: DT_FLOAT
            tensor_shape {
            }
            float_val: 0.0
          }
        }
      }
    }
    ret {
      key: "const"
      value: "Const:output:0"
    }
    attr {
      key: "_input_shapes"
      value {
        list {
          shape {
          }
          shape {
          }
        }
      }
    }
    arg_attr {
      key: 1
      value {
        attr {
          key: "_output_shapes"
          value {
            list {
              shape {
              }
            }
          }
        }
      }
    }
  }
  function {
    signature {
      name: "zero_fraction_total_zero_zero_count_2_false_37471"
      input_arg {
        name: "zero_fraction_readvariableop_linear_linear_model_class_weights"
        type: DT_RESOURCE
        handle_data {
          dtype: DT_FLOAT
          shape {
            dim {
              size: 3
            }
            dim {
              size: 1
            }
          }
        }
      }
      input_arg {
        name: "cast_zero_fraction_total_size_size_2"
        type: DT_INT64
      }
      output_arg {
        name: "mul"
        type: DT_FLOAT
      }
      is_stateful: true
    }
    node_def {
      name: "zero_fraction/ReadVariableOp"
      op: "ReadVariableOp"
      input: "zero_fraction_readvariableop_linear_linear_model_class_weights"
      attr {
        key: "_output_shapes"
        value {
          list {
            shape {
              dim {
                size: 3
              }
              dim {
                size: 1
              }
            }
          }
        }
      }
      attr {
        key: "dtype"
        value {
          type: DT_FLOAT
        }
      }
    }
    node_def {
      name: "zero_fraction/Size"
      op: "Const"
      attr {
        key: "_output_shapes"
        value {
          list {
            shape {
            }
          }
        }
      }
      attr {
        key: "dtype"
        value {
          type: DT_INT64
        }
      }
      attr {
        key: "value"
        value {
          tensor {
            dtype: DT_INT64
            tensor_shape {
            }
            int64_val: 3
          }
        }
      }
    }
    node_def {
      name: "zero_fraction/LessEqual/y"
      op: "Const"
      attr {
        key: "_output_shapes"
        value {
          list {
            shape {
            }
          }
        }
      }
      attr {
        key: "dtype"
        value {
          type: DT_INT64
        }
      }
      attr {
        key: "value"
        value {
          tensor {
            dtype: DT_INT64
            tensor_shape {
            }
            int64_val: 2147483647
          }
        }
      }
    }
    node_def {
      name: "zero_fraction/LessEqual"
      op: "LessEqual"
      input: "zero_fraction/Size:output:0"
      input: "zero_fraction/LessEqual/y:output:0"
      attr {
        key: "T"
        value {
          type: DT_INT64
        }
      }
      attr {
        key: "_output_shapes"
        value {
          list {
            shape {
            }
          }
        }
      }
    }
    node_def {
      name: "zero_fraction/cond"
      op: "StatelessIf"
      input: "zero_fraction/LessEqual:z:0"
      input: "zero_fraction/ReadVariableOp:value:0"
      attr {
        key: "Tcond"
        value {
          type: DT_BOOL
        }
      }
      attr {
        key: "Tin"
        value {
          list {
            type: DT_FLOAT
          }
        }
      }
      attr {
        key: "Tout"
        value {
          list {
            type: DT_INT64
          }
        }
      }
      attr {
        key: "_lower_using_switch_merge"
        value {
          b: true
        }
      }
      attr {
        key: "_output_shapes"
        value {
          list {
            shape {
            }
          }
        }
      }
      attr {
        key: "_read_only_resource_inputs"
        value {
          list {
          }
        }
      }
      attr {
        key: "else_branch"
        value {
          func {
            name: "zero_fraction_cond_false_37481"
          }
        }
      }
      attr {
        key: "output_shapes"
        value {
          list {
            shape {
            }
          }
        }
      }
      attr {
        key: "then_branch"
        value {
          func {
            name: "zero_fraction_cond_true_37480"
          }
        }
      }
    }
    node_def {
      name: "zero_fraction/cond/Identity"
      op: "Identity"
      input: "zero_fraction/cond:output:0"
      attr {
        key: "T"
        value {
          type: DT_INT64
        }
      }
      attr {
        key: "_output_shapes"
        value {
          list {
            shape {
            }
          }
        }
      }
    }
    node_def {
      name: "zero_fraction/counts_to_fraction/sub"
      op: "Sub"
      input: "zero_fraction/Size:output:0"
      input: "zero_fraction/cond/Identity:output:0"
      attr {
        key: "T"
        value {
          type: DT_INT64
        }
      }
      attr {
        key: "_output_shapes"
        value {
          list {
            shape {
            }
          }
        }
      }
    }
    node_def {
      name: "zero_fraction/counts_to_fraction/Cast"
      op: "Cast"
      input: "zero_fraction/counts_to_fraction/sub:z:0"
      attr {
        key: "DstT"
        value {
          type: DT_FLOAT
        }
      }
      attr {
        key: "SrcT"
        value {
          type: DT_INT64
        }
      }
      attr {
        key: "Truncate"
        value {
          b: false
        }
      }
      attr {
        key: "_output_shapes"
        value {
          list {
            shape {
            }
          }
        }
      }
    }
    node_def {
      name: "zero_fraction/counts_to_fraction/Cast_1"
      op: "Cast"
      input: "zero_fraction/Size:output:0"
      attr {
        key: "DstT"
        value {
          type: DT_FLOAT
        }
      }
      attr {
        key: "SrcT"
        value {
          type: DT_INT64
        }
      }
      attr {
        key: "Truncate"
        value {
          b: false
        }
      }
      attr {
        key: "_output_shapes"
        value {
          list {
            shape {
            }
          }
        }
      }
    }
    node_def {
      name: "zero_fraction/counts_to_fraction/truediv"
      op: "RealDiv"
      input: "zero_fraction/counts_to_fraction/Cast:y:0"
      input: "zero_fraction/counts_to_fraction/Cast_1:y:0"
      attr {
        key: "T"
        value {
          type: DT_FLOAT
        }
      }
      attr {
        key: "_output_shapes"
        value {
          list {
            shape {
            }
          }
        }
      }
    }
    node_def {
      name: "zero_fraction/fraction"
      op: "Identity"
      input: "zero_fraction/counts_to_fraction/truediv:z:0"
      attr {
        key: "T"
        value {
          type: DT_FLOAT
        }
      }
      attr {
        key: "_output_shapes"
        value {
          list {
            shape {
            }
          }
        }
      }
    }
    node_def {
      name: "Cast"
      op: "Cast"
      input: "cast_zero_fraction_total_size_size_2"
      attr {
        key: "DstT"
        value {
          type: DT_FLOAT
        }
      }
      attr {
        key: "SrcT"
        value {
          type: DT_INT64
        }
      }
      attr {
        key: "Truncate"
        value {
          b: false
        }
      }
      attr {
        key: "_output_shapes"
        value {
          list {
            shape {
            }
          }
        }
      }
    }
    node_def {
      name: "mul_0"
      op: "Mul"
      input: "zero_fraction/fraction:output:0"
      input: "Cast:y:0"
      attr {
        key: "T"
        value {
          type: DT_FLOAT
        }
      }
    }
    ret {
      key: "mul"
      value: "mul_0:z:0"
    }
    attr {
      key: "_input_shapes"
      value {
        list {
          shape {
          }
          shape {
          }
        }
      }
    }
    arg_attr {
      key: 1
      value {
        attr {
          key: "_output_shapes"
          value {
            list {
              shape {
              }
            }
          }
        }
      }
    }
  }
  function {
    signature {
      name: "zero_fraction_total_zero_zero_count_6_false_37643"
      input_arg {
        name: "zero_fraction_readvariableop_linear_linear_model_n_siblings_spouses_weights"
        type: DT_RESOURCE
        handle_data {
          dtype: DT_FLOAT
          shape {
            dim {
              size: 7
            }
            dim {
              size: 1
            }
          }
        }
      }
      input_arg {
        name: "cast_zero_fraction_total_size_size_6"
        type: DT_INT64
      }
      output_arg {
        name: "mul"
        type: DT_FLOAT
      }
      is_stateful: true
    }
    node_def {
      name: "zero_fraction/ReadVariableOp"
      op: "ReadVariableOp"
      input: "zero_fraction_readvariableop_linear_linear_model_n_siblings_spouses_weights"
      attr {
        key: "_output_shapes"
        value {
          list {
            shape {
              dim {
                size: 7
              }
              dim {
                size: 1
              }
            }
          }
        }
      }
      attr {
        key: "dtype"
        value {
          type: DT_FLOAT
        }
      }
    }
    node_def {
      name: "zero_fraction/Size"
      op: "Const"
      attr {
        key: "_output_shapes"
        value {
          list {
            shape {
            }
          }
        }
      }
      attr {
        key: "dtype"
        value {
          type: DT_INT64
        }
      }
      attr {
        key: "value"
        value {
          tensor {
            dtype: DT_INT64
            tensor_shape {
            }
            int64_val: 7
          }
        }
      }
    }
    node_def {
      name: "zero_fraction/LessEqual/y"
      op: "Const"
      attr {
        key: "_output_shapes"
        value {
          list {
            shape {
            }
          }
        }
      }
      attr {
        key: "dtype"
        value {
          type: DT_INT64
        }
      }
      attr {
        key: "value"
        value {
          tensor {
            dtype: DT_INT64
            tensor_shape {
            }
            int64_val: 2147483647
          }
        }
      }
    }
    node_def {
      name: "zero_fraction/LessEqual"
      op: "LessEqual"
      input: "zero_fraction/Size:output:0"
      input: "zero_fraction/LessEqual/y:output:0"
      attr {
        key: "T"
        value {
          type: DT_INT64
        }
      }
      attr {
        key: "_output_shapes"
        value {
          list {
            shape {
            }
          }
        }
      }
    }
    node_def {
      name: "zero_fraction/cond"
      op: "StatelessIf"
      input: "zero_fraction/LessEqual:z:0"
      input: "zero_fraction/ReadVariableOp:value:0"
      attr {
        key: "Tcond"
        value {
          type: DT_BOOL
        }
      }
      attr {
        key: "Tin"
        value {
          list {
            type: DT_FLOAT
          }
        }
      }
      attr {
        key: "Tout"
        value {
          list {
            type: DT_INT64
          }
        }
      }
      attr {
        key: "_lower_using_switch_merge"
        value {
          b: true
        }
      }
      attr {
        key: "_output_shapes"
        value {
          list {
            shape {
            }
          }
        }
      }
      attr {
        key: "_read_only_resource_inputs"
        value {
          list {
          }
        }
      }
      attr {
        key: "else_branch"
        value {
          func {
            name: "zero_fraction_cond_false_37653"
          }
        }
      }
      attr {
        key: "output_shapes"
        value {
          list {
            shape {
            }
          }
        }
      }
      attr {
        key: "then_branch"
        value {
          func {
            name: "zero_fraction_cond_true_37652"
          }
        }
      }
    }
    node_def {
      name: "zero_fraction/cond/Identity"
      op: "Identity"
      input: "zero_fraction/cond:output:0"
      attr {
        key: "T"
        value {
          type: DT_INT64
        }
      }
      attr {
        key: "_output_shapes"
        value {
          list {
            shape {
            }
          }
        }
      }
    }
    node_def {
      name: "zero_fraction/counts_to_fraction/sub"
      op: "Sub"
      input: "zero_fraction/Size:output:0"
      input: "zero_fraction/cond/Identity:output:0"
      attr {
        key: "T"
        value {
          type: DT_INT64
        }
      }
      attr {
        key: "_output_shapes"
        value {
          list {
            shape {
            }
          }
        }
      }
    }
    node_def {
      name: "zero_fraction/counts_to_fraction/Cast"
      op: "Cast"
      input: "zero_fraction/counts_to_fraction/sub:z:0"
      attr {
        key: "DstT"
        value {
          type: DT_FLOAT
        }
      }
      attr {
        key: "SrcT"
        value {
          type: DT_INT64
        }
      }
      attr {
        key: "Truncate"
        value {
          b: false
        }
      }
      attr {
        key: "_output_shapes"
        value {
          list {
            shape {
            }
          }
        }
      }
    }
    node_def {
      name: "zero_fraction/counts_to_fraction/Cast_1"
      op: "Cast"
      input: "zero_fraction/Size:output:0"
      attr {
        key: "DstT"
        value {
          type: DT_FLOAT
        }
      }
      attr {
        key: "SrcT"
        value {
          type: DT_INT64
        }
      }
      attr {
        key: "Truncate"
        value {
          b: false
        }
      }
      attr {
        key: "_output_shapes"
        value {
          list {
            shape {
            }
          }
        }
      }
    }
    node_def {
      name: "zero_fraction/counts_to_fraction/truediv"
      op: "RealDiv"
      input: "zero_fraction/counts_to_fraction/Cast:y:0"
      input: "zero_fraction/counts_to_fraction/Cast_1:y:0"
      attr {
        key: "T"
        value {
          type: DT_FLOAT
        }
      }
      attr {
        key: "_output_shapes"
        value {
          list {
            shape {
            }
          }
        }
      }
    }
    node_def {
      name: "zero_fraction/fraction"
      op: "Identity"
      input: "zero_fraction/counts_to_fraction/truediv:z:0"
      attr {
        key: "T"
        value {
          type: DT_FLOAT
        }
      }
      attr {
        key: "_output_shapes"
        value {
          list {
            shape {
            }
          }
        }
      }
    }
    node_def {
      name: "Cast"
      op: "Cast"
      input: "cast_zero_fraction_total_size_size_6"
      attr {
        key: "DstT"
        value {
          type: DT_FLOAT
        }
      }
      attr {
        key: "SrcT"
        value {
          type: DT_INT64
        }
      }
      attr {
        key: "Truncate"
        value {
          b: false
        }
      }
      attr {
        key: "_output_shapes"
        value {
          list {
            shape {
            }
          }
        }
      }
    }
    node_def {
      name: "mul_0"
      op: "Mul"
      input: "zero_fraction/fraction:output:0"
      input: "Cast:y:0"
      attr {
        key: "T"
        value {
          type: DT_FLOAT
        }
      }
    }
    ret {
      key: "mul"
      value: "mul_0:z:0"
    }
    attr {
      key: "_input_shapes"
      value {
        list {
          shape {
          }
          shape {
          }
        }
      }
    }
    arg_attr {
      key: 1
      value {
        attr {
          key: "_output_shapes"
          value {
            list {
              shape {
              }
            }
          }
        }
      }
    }
  }
  function {
    signature {
      name: "zero_fraction_cond_true_37523"
      input_arg {
        name: "count_nonzero_notequal_zero_fraction_readvariableop"
        type: DT_FLOAT
      }
      output_arg {
        name: "cast"
        type: DT_INT64
      }
    }
    node_def {
      name: "count_nonzero/zeros"
      op: "Const"
      attr {
        key: "_output_shapes"
        value {
          list {
            shape {
            }
          }
        }
      }
      attr {
        key: "dtype"
        value {
          type: DT_FLOAT
        }
      }
      attr {
        key: "value"
        value {
          tensor {
            dtype: DT_FLOAT
            tensor_shape {
            }
            float_val: 0.0
          }
        }
      }
    }
    node_def {
      name: "count_nonzero/NotEqual"
      op: "NotEqual"
      input: "count_nonzero_notequal_zero_fraction_readvariableop"
      input: "count_nonzero/zeros:output:0"
      attr {
        key: "T"
        value {
          type: DT_FLOAT
        }
      }
      attr {
        key: "_output_shapes"
        value {
          list {
            shape {
              dim {
                size: 8
              }
              dim {
                size: 1
              }
            }
          }
        }
      }
      attr {
        key: "incompatible_shape_error"
        value {
          b: true
        }
      }
    }
    node_def {
      name: "count_nonzero/Cast"
      op: "Cast"
      input: "count_nonzero/NotEqual:z:0"
      attr {
        key: "DstT"
        value {
          type: DT_INT32
        }
      }
      attr {
        key: "SrcT"
        value {
          type: DT_BOOL
        }
      }
      attr {
        key: "Truncate"
        value {
          b: false
        }
      }
      attr {
        key: "_output_shapes"
        value {
          list {
            shape {
              dim {
                size: 8
              }
              dim {
                size: 1
              }
            }
          }
        }
      }
    }
    node_def {
      name: "count_nonzero/Const"
      op: "Const"
      attr {
        key: "_output_shapes"
        value {
          list {
            shape {
              dim {
                size: 2
              }
            }
          }
        }
      }
      attr {
        key: "dtype"
        value {
          type: DT_INT32
        }
      }
      attr {
        key: "value"
        value {
          tensor {
            dtype: DT_INT32
            tensor_shape {
              dim {
                size: 2
              }
            }
            tensor_content: "\000\000\000\000\001\000\000\000"
          }
        }
      }
    }
    node_def {
      name: "count_nonzero/nonzero_count"
      op: "Sum"
      input: "count_nonzero/Cast:y:0"
      input: "count_nonzero/Const:output:0"
      attr {
        key: "T"
        value {
          type: DT_INT32
        }
      }
      attr {
        key: "Tidx"
        value {
          type: DT_INT32
        }
      }
      attr {
        key: "_output_shapes"
        value {
          list {
            shape {
            }
          }
        }
      }
      attr {
        key: "keep_dims"
        value {
          b: false
        }
      }
    }
    node_def {
      name: "Cast"
      op: "Cast"
      input: "count_nonzero/nonzero_count:output:0"
      attr {
        key: "DstT"
        value {
          type: DT_INT64
        }
      }
      attr {
        key: "SrcT"
        value {
          type: DT_INT32
        }
      }
      attr {
        key: "Truncate"
        value {
          b: false
        }
      }
      attr {
        key: "_output_shapes"
        value {
          list {
            shape {
            }
          }
        }
      }
    }
    ret {
      key: "cast"
      value: "Cast:y:0"
    }
    attr {
      key: "_input_shapes"
      value {
        list {
          shape {
            dim {
              size: 8
            }
            dim {
              size: 1
            }
          }
        }
      }
    }
    arg_attr {
      value {
        attr {
          key: "_output_shapes"
          value {
            list {
              shape {
                dim {
                  size: 8
                }
                dim {
                  size: 1
                }
              }
            }
          }
        }
      }
    }
  }
}
versions {
  producer: 898
  min_consumer: 12
}
